checkpoints/LeNetwPE_cifar10.pth (torch, 745806 bytes, 13 tensors)

conv1.weight f4 [6, 3, 5, 5]
0	0x3d23a236	0.03994962
1	0x3c583a5f	0.0131975105
2	0xbdc0622a	-0.09393723
3	0x3d449496	0.047993265
4	0x3cb93014	0.022605933
5	0xbd22b912	-0.039727278
6	0x3e66ee30	0.22551799
7	0xbe8eba93	-0.2787672
8	0x3e0e07b3	0.13870125
9	0x3c2ac725	0.010423456
10	0x3df5a323	0.119940065
11	0xbc27dd61	-0.010245652
12	0xbeff18c9	-0.49823597
13	0x3e2a02bf	0.1660261
14	0x3d474507	0.048649814
15	0x3e29df86	0.16589174
16	0x3de8a036	0.11358683
17	0xbee5df96	-0.44897145
18	0x3e16bfa3	0.14721541
19	0x3dae1625	0.085003175
20	0x3e3afff4	0.18261701
21	0xbb81f02c	-0.0039653983
22	0xbee927a7	-0.45538065
23	0x3e2e91cc	0.17047805
24	0x3e117e02	0.14208224
25	0x3d247cd7	0.04015812
26	0x3d84003d	0.06445358
27	0xbe0bc889	-0.13650717
28	0xbc73749f	-0.014859348
29	0x3d7aab13	0.061198305
30	0x3d5a3c08	0.053279907
31	0x3dd4156f	0.10355651
32	0xbed628d2	-0.41828018
33	0x3e13f4f2	0.14448908
34	0x3db95ef3	0.09051313
35	0x3e7b82e4	0.2456165
36	0xbd2d2992	-0.042275973
37	0xbf04c4f4	-0.51863027
38	0x3ec13d32	0.37742
39	0x3d228a93	0.039682936
40	0x3e84a6e5	0.2590858
41	0xbcd658c3	-0.026165372
42	0xbf0c694f	-0.5484819
43	0x3e859233	0.26088104
44	0x3da5ec38	0.08101696
45	0x3e297f87	0.16552554
46	0x3c44dd0a	0.01201559
47	0xbf070411	-0.5274058
48	0x3e5ba746	0.21450529
49	0x3d6b2fa0	0.057418466
50	0xbdf827ed	-0.1211699
51	0x3db2317d	0.087008454
52	0xbdae09fe	-0.084979996
53	0x3db38cd8	0.08767098
54	0xbdfdb3e3	-0.12387826
55	0x3bcd3d8f	0.006263442
56	0x3decee64	0.11568907
57	0xbe6c3bb1	-0.23069645
58	0x3e16f6d1	0.1474259
59	0x3c9d9b2f	0.019239036
60	0x3d1f9069	0.03895608
61	0x3e351ce8	0.17686808
62	0xbea9ef1e	-0.33190244
63	0x3e8e0362	0.27736956
64	0xbc815de1	-0.015791835
65	0x3d85d165	0.065340795
66	0xbb15e591	-0.0022872428
67	0xbedd005f	-0.43164346
68	0x3e822776	0.2542073
69	0x3d126f06	0.03575041
70	0x3de02cb2	0.10946025
71	0x3dd5cbee	0.10439287
72	0xbe92364f	-0.2855706
73	0x3dddb7ce	0.108260736
74	0x3be30b40	0.0069288313
75	0xbe4c5298	-0.19953382
76	0xbdf3c0e6	-0.11902027
77	0x3e262eec	0.16228837
78	0x3e3451c0	0.1760931
79	0xbc0bdfad	-0.008537215
80	0xbe375160	-0.17902136
81	0x3e48fdc7	0.19628058
82	0x3dd5a76c	0.10432324
83	0x3e577bf9	0.21043386
84	0x3d92d4b6	0.07169478
85	0x3d79c77c	0.06098126
86	0x3e1fe1fc	0.1561355
87	0x3d72c61e	0.05927097
88	0x3da4b97f	0.08043193
89	0x3cefc4c1	0.029268624
90	0x3d4d7fde	0.05017077
91	0xbd2c72de	-0.042101733
92	0x3cfe50ee	0.03104445
93	0xbdfcf8a6	-0.123521134
94	0x3cf11b05	0.02943183
95	0xbe331004	-0.17486578
96	0x3c430886	0.011903888
97	0xbc9b77f4	-0.018978097
98	0xbced18f7	-0.028942568
99	0x3d5d9502	0.054097183
100	0xbe875a81	-0.26436237
101	0xbe0405db	-0.12892859
102	0x3d2fc4e4	0.04291238
103	0x3e2b3838	0.16720665
104	0x3da1a0ee	0.07892023
105	0xbe086e96	-0.13323435
106	0x3d084852	0.033272095
107	0x3e548e12	0.2075732
108	0x3e858c69	0.26083687
109	0xbe8b320b	-0.27186617
110	0x3dd9864a	0.10621317
111	0x3e342e89	0.17595877
112	0x3e705a53	0.23471956
113	0xbde4d952	-0.11174263
114	0xbe9aad86	-0.30210513
115	0x3dd78a05	0.10524372
116	0xbd6f02a9	-0.058352146
117	0xba4e91f2	-0.0007880024
118	0xbe8fc656	-0.28081006
119	0xbea53031	-0.3226333
120	0xbbd6500b	-0.0065403036
121	0xbd92c8ff	-0.07167243
122	0x3ba04da3	0.0048920675
123	0xbe1592a8	-0.14606726
124	0xbe823b04	-0.2543565
125	0xbe979c4d	-0.29611436
126	0xbd5d68cb	-0.054055016
127	0x3e00ff72	0.12597445
128	0x3ee57388	0.44814706
129	0x3e8ed21b	0.27894673
130	0xbd1c7c20	-0.038204312
131	0x3e21dfc8	0.15808022
132	0x3ed8ea46	0.42366236
133	0x3ee0df58	0.43920398
134	0xbe1dc532	-0.15407255
135	0xbd8a3b71	-0.06749619
136	0x3e12e84f	0.14346431
137	0x3e97beb4	0.29637682
138	0x3e34360e	0.17598745
139	0xbe8237b9	-0.25433138
140	0x3e146387	0.14491092
141	0x3df5bf0d	0.11999331
142	0x3e75ffe5	0.24023397
143	0x3e115d7f	0.14195822
144	0xbdb21883	-0.086960815
145	0x3da8b715	0.08238045
146	0xbd99d849	-0.07511956
147	0x3e0fcbde	0.14042613
148	0x3c967424	0.018365927
149	0x3cf7565f	0.030192552
150	0x3e421f3d	0.18957229
151	0x3e2d3e15	0.16918214
152	0x3df89e22	0.121395364
153	0x3db8d081	0.09024144
154	0x3d8da407	0.06916051
155	0x3da966a1	0.08271528
156	0xbdd4fa52	-0.10399307
157	0x3e887624	0.26652634
158	0x3eb5e425	0.35525623
159	0x3e01832c	0.12647694
160	0xbe4e1f94	-0.20129234
161	0xbd791c19	-0.06081781
162	0x3eb64bf1	0.35604814
163	0x3e928671	0.28618196
164	0xbbbb01a9	-0.005706985
165	0xbe3c0776	-0.18362221
166	0x3e7e0a23	0.24808554
167	0x3ef74401	0.4829407
168	0x3ccf95cb	0.025339982
169	0x3d1043fe	0.035221092
170	0xbdb108f9	-0.086442895
171	0x3e8a88cc	0.27057493
172	0xbe140629	-0.14455475
173	0xbecc7040	-0.3992939
174	0x3e0f8071	0.1401384
175	0x3e6c43f4	0.23072797
176	0x3b0eae5a	0.0021771402
177	0xbd268bbc	-0.040660605
178	0xbd29ca6a	-0.041452803
179	0xbe17fe61	-0.14843132
180	0xbdbd16c5	-0.092328586
181	0xbd7501f9	-0.059816334
182	0xbd67d5ee	-0.056600504
183	0x3da55a58	0.08073872
184	0x3c75ac85	0.014994745
185	0xbdbae078	-0.09124845
186	0xbdddb810	-0.10826123
187	0x3e8d9bd3	0.27657947
188	0x3dcb857d	0.0993757
189	0xbe601bda	-0.21885625
190	0xbd9cb5b5	-0.07651845
191	0x3e8fe288	0.28102517
192	0x3eaaff3b	0.3339785
193	0xbe8af6af	-0.2714133
194	0xbe22ac47	-0.15886031
195	0x3dcf7428	0.10129577
196	0x3ebdc66f	0.37065455
197	0xbdc2be24	-0.09508923
198	0xbec2f43c	-0.3807696
199	0x3ca7685e	0.020435508
200	0xbe114dad	-0.14189787
201	0xbe57476b	-0.21023338
202	0xbe931f73	-0.2873493
203	0xbdc1e756	-0.09467952
204	0xbc8ea40a	-0.017412204
205	0xbe4f23fd	-0.20228572
206	0xbe9f4728	-0.31108975
207	0xbe1e7491	-0.15474154
208	0xbdd1e834	-0.10249367
209	0x3de29877	0.110642366
210	0xbe3de96f	-0.18546079
211	0xbe998801	-0.29986575
212	0x3d402901	0.046914104
213	0xbd0ab1eb	-0.033861082
214	0x3c872064	0.016494937
215	0xbe8c10c4	-0.2735654
216	0x3bfa5300	0.007639289
217	0x3e3c782a	0.18405214
218	0xbe77014f	-0.24121593
219	0x3c018e3e	0.007907448
220	0x3cb571e4	0.022149034
221	0x3e54761d	0.20748182
222	0xbe03fe08	-0.12889874
223	0xbe5899a8	-0.21152365
224	0x3e54c4ef	0.20778249
225	0x3c724e17	0.014789126
226	0xbe01cc0b	-0.12675492
227	0xbe11cc91	-0.14238192
228	0x3e2d520f	0.16925834
229	0xbe27e156	-0.16394553
230	0xbd0f9fdd	-0.035064567
231	0xbec72420	-0.3889475
232	0xbea733ab	-0.32656607
233	0xbe850e15	-0.25987306
234	0xbe54a53d	-0.20766158
235	0x3d0dacbe	0.034588568
236	0x3e2eeea6	0.17083225
237	0x3ed4486e	0.4146151
238	0x3e23fa85	0.16013534
239	0x3de60310	0.11231053
240	0x3e180f13	0.148495
241	0x3e6911f2	0.22760752
242	0x3e49e07e	0.19714543
243	0x3e4e88f6	0.20169434
244	0xbda16709	-0.078809805
245	0x3dbb56f2	0.09147443
246	0xbe217927	-0.15768872
247	0xbe9902c7	-0.2988493
248	0xbb8b61af	-0.004253588
249	0x3dcb3894	0.09922901
250	0x3e007c3a	0.12547389
251	0x3d93fb32	0.07225646
252	0xbd757894	-0.059929445
253	0x3e903ffd	0.2817382
254	0x3c980b12	0.018559966
255	0x3cdd2fc3	0.027000314

conv1.bias f4 [6]
0	0xbd437943	-0.047723066
1	0x3ed3825e	0.413104
2	0x3e92a0d2	0.2863832
3	0xbd337593	-0.0438133
4	0xbd5cf8aa	-0.053948082
5	0x3d90bb94	0.07067028

conv2.weight f4 [16, 6, 5, 5]
0	0x3d81f53d	0.063456036
1	0xbeac3779	-0.33636072
2	0xbe451245	-0.1924525
3	0x3dcc968f	0.09989654
4	0x3ddc174b	0.1074663
5	0x3d9d48db	0.07679912
6	0x3ca9169f	0.02064067
7	0xbca90c0b	-0.020635625
8	0x3c36df6b	0.011161665
9	0xbe5a374b	-0.21310155
10	0x3dc37959	0.095446296
11	0xbd931f2b	-0.07183679
12	0x3e39496f	0.18094419
13	0x3e8906cf	0.26763007
14	0xbd550727	-0.052008774
15	0xbde1af53	-0.110197686
16	0xbe2f8ebc	-0.17144293
17	0xbf08f3e8	-0.5349717
18	0xbbf1910e	-0.007372028
19	0xbd907b07	-0.070547156
20	0x3d8a959d	0.06766818
21	0xbe3542e5	-0.177013
22	0xbd9e0f40	-0.077177525
23	0xbc34ef03	-0.011043313
24	0xbd43738c	-0.047717616
25	0xbdf15596	-0.11783902
26	0x3d9533a0	0.07285237
27	0xbe272037	-0.16320883
28	0xbda0fc81	-0.07860661
29	0xbe3b23c2	-0.1827536
30	0xbcb3303b	-0.021873584
31	0xbe1703ad	-0.14747496
32	0xbd0cb924	-0.03435625
33	0xbe9acecb	-0.30235896
34	0xbc375b5a	-0.0111912135
35	0x3bcbcd44	0.006219538
36	0xbd7301d4	-0.059327915
37	0xbd80e19c	-0.062930316
38	0xbe1a09f8	-0.15042865
39	0xbe2f9337	-0.17146002
40	0x3db3140b	0.08744057
41	0x3e279979	0.16367139
42	0x3e4ef308	0.20209897
43	0x3d90db55	0.07073084
44	0x3dfde4a5	0.12397126
45	0x3c584131	0.013199137
46	0x3e834104	0.2563554
47	0x3e06739f	0.13130043
48	0x3e7f6e46	0.2494441
49	0x3ced2709	0.028949277
50	0xbe0c4049	-0.13696398
51	0xbe892d87	-0.26792547
52	0xbeb01eed	-0.34398594
53	0xbea1081f	-0.31451508
54	0xbe9aba87	-0.30220434
55	0x3e38e40e	0.18055746
56	0x3d5c9ae2	0.053858645
57	0x3c8b3480	0.016992807
58	0xbdeb8041	-0.11499072
59	0xbeb4837a	-0.3525656
60	0x3e7484a2	0.2387872
61	0x3e58fee5	0.21190985
62	0x3dcf23af	0.10114228
63	0x3ddda8e4	0.10823229
64	0xbd70ada0	-0.05875933
65	0x3d1b555e	0.03792321
66	0x3e578cf6	0.21049866
67	0x3df3fa5b	0.11912986
68	0x3ea3142f	0.31851336
69	0xbd08448f	-0.033268508
70	0xbdcbdb6c	-0.09953961
71	0xbc3c2081	-0.011482359
72	0x3e25af66	0.1618019
73	0xbe36641f	-0.1781163
74	0xbd683887	-0.056694534
75	0x3ed92c6f	0.42416713
76	0x3e794a17	0.2434467
77	0x3ea1ec61	0.31625655
78	0x3c0dbc7f	0.008650898
79	0x3dfa11ee	0.12210451
80	0x3e7ae035	0.2449959
81	0x3e692cc8	0.22770989
82	0x3e466d89	0.19377722
83	0x3e69e36d	0.22840662
84	0x3e3f637b	0.18690293
85	0x3e82ee0f	0.2557225
86	0x3da107b5	0.07862798
87	0x3e6d4f43	0.23174767
88	0x3daa2a59	0.083088584
89	0x3e1e3e13	0.15453367
90	0x3e17f780	0.14840508
91	0xbdb3eeae	-0.08785759
92	0xbd6149d3	-0.055002045
93	0x3dd921b6	0.10602133
94	0x3e694a96	0.22782359
95	0x3e35e2f7	0.17762361
96	0x3e22cfb3	0.15899543
97	0x3d25669d	0.040381063
98	0x3d00c122	0.031434186
99	0x3e3c6f59	0.18401851
100	0x3e3b0125	0.18262155
101	0x3e370bfc	0.17875665
102	0x3e83236d	0.25612965
103	0x3e804e27	0.25059626
104	0x3921f2ad	0.0001544456
105	0xbd01aa26	-0.031656407
106	0x3d68fdd9	0.056882713
107	0x3db6cbee	0.08925615
108	0xbceaf40e	-0.028680827
109	0x3eabd017	0.33557197
110	0xbe41c534	-0.18922883
111	0xbe5f8442	-0.21827796
112	0x3e19c697	0.15017162
113	0x3e1e81db	0.15479223
114	0x3e4f5f01	0.20251085
115	0x3dcc993d	0.099901654
116	0x3db9d966	0.090746686
117	0x3e164398	0.14674222
118	0x3e00f536	0.1259354
119	0x3d6b8bb4	0.05750628
120	0x3ddc2aed	0.10750375
121	0x3e1a0455	0.15040715
122	0x3e543fa6	0.20727405
123	0xbce81558	-0.02833049
124	0x3e0d1897	0.13778912
125	0x3cf1e756	0.029529255
126	0xbcef6dd2	-0.029227171
127	0x3db851bf	0.08999967
128	0x3e85ab26	0.26107138
129	0x3c555526	0.013020789
130	0xbd4e274f	-0.050330456
131	0xbdcfa139	-0.10138173
132	0xbdb4162a	-0.0879329
133	0xbd7f209a	-0.06228695
134	0xbe663969	-0.22482838
135	0xbe38862a	-0.1801993
136	0xbe268ac2	-0.1626387
137	0xbe1ae295	-0.15125497
138	0xbdf7e7af	-0.12104737
139	0xbd3fac4c	-0.046795174
140	0xbe8236cd	-0.25432435
141	0xbd81acef	-0.063318126
142	0xbe13587b	-0.14389221
143	0xbe739f75	-0.23791297
144	0xbdcb0090	-0.09912217
145	0xbd99d53e	-0.07511376
146	0x3d44aac2	0.04801441
147	0xbd17c816	-0.03705605
148	0x3e1644dd	0.14674707
149	0xbe320fe2	-0.17388871
150	0xbe9a1999	-0.30097654
151	0xbe4575c2	-0.19283202
152	0xbeff2f8b	-0.4984096
153	0xbf167ee3	-0.58787364
154	0xbc3a014e	-0.01135285
155	0x3d3ffcd1	0.046871964
156	0xbf290780	-0.6602707
157	0xbe56af24	-0.20965248
158	0xbdcaa127	-0.098940186
159	0x3d26bc80	0.04070711
160	0xbe1d2569	-0.15346302
161	0xbe51c2a2	-0.20484403
162	0xbceb0754	-0.028690018
163	0x3dc094e3	0.09403398
164	0x3c5044e1	0.0127117345
165	0xbe9539d5	-0.29145685
166	0xbe067994	-0.13132316
167	0xbd77fc3d	-0.060543288
168	0xbdeab877	-0.11460965
169	0x3dd5159b	0.104045115
170	0xbe9dd33a	-0.30825216
171	0x3c59a058	0.013282858
172	0xbe3aa5a0	-0.18227243
173	0xbd86f2d0	-0.065892816
174	0xbdd28306	-0.10278897
175	0x3be6a950	0.0070392266
176	0x3cec018b	0.02880933
177	0x3e6052b0	0.21906543
178	0x3d92cbb7	0.07167762
179	0x3dfbf7a8	0.12303096
180	0xbdd18446	-0.10230307
181	0x3dad040f	0.0844804
182	0xbe30c0c6	-0.17261037
183	0xbddc1d95	-0.1074783
184	0x3e1f51c3	0.15558533
185	0x3da1c38b	0.07898625
186	0x3deffc39	0.117180295
187	0xbe4b62c9	-0.19861902
188	0x3d0df32e	0.034655742
189	0xbd938f5c	-0.07205078
190	0xbd28f7ff	-0.041252133
191	0x3df732b0	0.12070215
192	0xbe200541	-0.15627004
193	0xbdcb9f00	-0.09942436
194	0x3d86e18d	0.06585989
195	0x3de6760e	0.11252986
196	0x3dbc47a9	0.091933556
197	0x3de5ffea	0.11230452
198	0x3dfb99f6	0.12285225
199	0xbc3b6108	-0.011436708
200	0x3e266f9e	0.16253516
201	0x3d82187f	0.063523285
202	0xbd97f363	-0.07419469
203	0x3d2981ea	0.04138366
204	0x3c69d760	0.014272541
205	0x3db1ac6c	0.08675465
206	0x3dde849f	0.10865139
207	0x3d551e7a	0.052031018
208	0x3cdf05e6	0.027224492
209	0x3cee9e65	0.029128263
210	0x3e87c5cc	0.26518095
211	0x3d92ece7	0.07174092
212	0x3ded6558	0.115915954
213	0x3dbcb09b	0.09213372
214	0x3e2d5eef	0.16930746
215	0xbdde955f	-0.10868334
216	0xbe1ac822	-0.15115407
217	0x3d0443b0	0.032291114
218	0x3cd30292	0.025758062
219	0xbe69347f	-0.22773932
220	0xbc8afaf4	-0.016965367
221	0xbe00782a	-0.12545839
222	0x3d097e02	0.033567436
223	0x3ccdc052	0.02511612
224	0xbe79ae68	-0.24382937
225	0x3db09ac8	0.08623272
226	0xbea06dcb	-0.31333765
227	0xbc2ffb01	-0.010740996
228	0x3eb648c4	0.3560239
229	0x3c9981bb	0.018738618
230	0x3e53ac6d	0.20671244
231	0x3e48e099	0.19616927
232	0x3d82d28b	0.06387814
233	0x3d9a7ffb	0.075439416
234	0x3e2c9e18	0.16857183
235	0x3e4a72f7	0.19770418
236	0x3eb8993f	0.36054417
237	0x3cbf5095	0.023353854
238	0x3e351dd2	0.17687157
239	0x3eb1bc75	0.34714094
240	0x3e266c7f	0.16252325
241	0x3e80111e	0.2501306
242	0x3dddaeab	0.10824331
243	0x3e69a4ce	0.22816774
244	0x3ea1680e	0.315247
245	0x3e598a68	0.21244204
246	0x3dd3dfff	0.10345458
247	0x3bc8963c	0.006121425
248	0xbd2fa450	-0.04288131
249	0xbe145024	-0.14483696
250	0xbe07fc48	-0.13279831
251	0xbe0df175	-0.1386164
252	0xbc20ad0b	-0.009806882
253	0xbe47609c	-0.19470447
254	0xbcf26406	-0.02958871
255	0x3cd85a95	0.02641038

conv2.bias f4 [16]
0	0x3cce6f5b	0.025199583
1	0xbe8eac77	-0.27865955
2	0x3ed53cbc	0.416479
3	0xbea594b4	-0.32340014
4	0xbd580f3a	-0.052748896
5	0xbc4d6352	-0.012535887
6	0x3eb47a01	0.35249332
7	0xbd241fff	-0.040069576
8	0xbe1044d6	-0.14088759
9	0xbddac298	-0.10681647
10	0xbe8042db	-0.25051007
11	0xbea78dc5	-0.3272535
12	0x3ee86ae2	0.45394045
13	0xbe3720c1	-0.17883588
14	0xbdee08df	-0.11622786
15	0x3dc0b6ad	0.09409843

fc1.weight f4 [120, 1424]
0	0xbcfd2ce5	-0.030905196
1	0xbce26ee9	-0.027640777
2	0x3b9e5a56	0.004832546
3	0xbc2e024e	-0.010620667
4	0x3bfbbb2c	0.0076822247
5	0x3a9bd23c	0.0011888216
6	0xbce702e3	-0.028199619
7	0xb9e804c0	-0.00044254027
8	0x3cd0fa59	0.02551
9	0xbc13f0e0	-0.009029597
10	0x3c08fc57	0.008360944
11	0xbc9534a1	-0.018213572
12	0xbb9e9f48	-0.004840765
13	0xbbb79bc8	-0.0056032874
14	0xbc35ce52	-0.011096554
15	0x3bfbc8ea	0.007683863
16	0xbb86ab3e	-0.004109769
17	0xbb30a6c5	-0.002695487
18	0xbc2280f3	-0.009918439
19	0x3c54263f	0.012948572
20	0x3c65b166	0.014019346
21	0x3ca9eb69	0.020742135
22	0xbbe79af4	-0.0070680324
23	0x3aee12f0	0.0018163603
24	0x3c904455	0.017610708
25	0xbcd9b613	-0.026576078
26	0xbbeb338c	-0.0071777757
27	0xbcda0441	-0.026613357
28	0xbcb146b5	-0.021640161
29	0xbc32abfe	-0.010905264
30	0x3c054bfd	0.008135793
31	0x3c1eac22	0.009684594
32	0x3c80236c	0.01564189
33	0xbc7f759b	-0.015592004
34	0x3c622b9a	0.013804341
35	0x3c5853e4	0.013203595
36	0xbc44bcc8	-0.0120079
37	0xbce659ff	-0.028119085
38	0xbc29aa3b	-0.0103555275
39	0xbc84a673	-0.01619265
40	0xbcd8f4e7	-0.026483966
41	0xbc345da2	-0.011008652
42	0x3c4e3b8f	0.012587442
43	0xbb89e9bd	-0.004208772
44	0x3c535fc9	0.012901255
45	0x3c762efd	0.015025851
46	0xbd03ddf8	-0.032194108
47	0x3c0a3a0d	0.008436692
48	0xbc209d53	-0.009803134
49	0xbc9b1152	-0.018929157
50	0x3c9e756f	0.019343106
51	0xbcbe04b4	-0.023195602
52	0xbc893bab	-0.016752085
53	0xbc4f84ea	-0.0126659665
54	0xbcad2aa5	-0.021138499
55	0xba0b2b86	-0.00053089147
56	0x3c6977d2	0.014249759
57	0x3c5a4b4a	0.013323614
58	0x3ca7ed4e	0.020498898
59	0x3b596aca	0.0033175224
60	0x3c048d5d	0.008090344
61	0x3c238700	0.009980917
62	0x3c656337	0.014000705
63	0x3bdb57c2	0.006693811
64	0xbc9c4a58	-0.019078419
65	0xbbcd74c2	-0.006270022
66	0xbc707dd2	-0.014678435
67	0xbc2537ec	-0.010084134
68	0x3c807846	0.01568235
69	0x3b7965d4	0.003805508
70	0x3b703136	0.0036650426
71	0xbcaeba53	-0.02132908
72	0xbca70d0b	-0.020391962
73	0xbbe059ce	-0.006846643
74	0xbcc517d3	-0.024059212
75	0xbcc9218d	-0.024552131
76	0x3b59eeb2	0.0033253846
77	0x3b6c7856	0.0036082468
78	0xbd032d52	-0.032025643
79	0x3ba60d34	0.005067492
80	0xbafc15ad	-0.0019232534
81	0xbcfb307b	-0.030662766
82	0xbcc2551f	-0.02372223
83	0x3ca26ee0	0.01982826
84	0xbccdfc0e	-0.025144603
85	0x3c612cc6	0.013743585
86	0xbb27e242	-0.0025617038
87	0xbcadc872	-0.021213744
88	0x3c9d97bd	0.019237394
89	0xbb926dec	-0.00446867
90	0x3c543c40	0.012953818
91	0xbc3fcf1b	-0.011707093
92	0xbcb94c70	-0.022619456
93	0xbc0e220a	-0.008675108
94	0xbbebb21f	-0.0071928645
95	0x3b0f892b	0.0021901827
96	0xbc6c33e9	-0.014416673
97	0x3c64eac3	0.013971987
98	0xbc3a5628	-0.01137308
99	0xbb12c63b	-0.0022395987
100	0xbc36b4a1	-0.011151464
101	0xba8d6e77	-0.0010790367
102	0xbc17cdae	-0.009265346
103	0xbcc417ee	-0.023937192
104	0xbc0e4ca4	-0.008685265
105	0xbcd49dec	-0.02595421
106	0xbccbb3cb	-0.024866005
107	0x3c9401c7	0.018067254
108	0x3c576fb5	0.013149192
109	0xbc5a9ee6	-0.013343548
110	0xbc51a4da	-0.012795651
111	0x3a880956	0.0010378759
112	0xbc637334	-0.013882447
113	0xbbac5f19	-0.00526036
114	0x3c9cab06	0.01912452
115	0x3c894cfb	0.01676034
116	0x3c012f22	0.0078847725
117	0x3ca16c67	0.01970501
118	0xbc931314	-0.017953433
119	0xbc403db4	-0.011733461
120	0x3b27217e	0.002550214
121	0xbcabb011	-0.020957978
122	0x3bc8351e	0.0061098477
123	0xbd0052fc	-0.03132914
124	0x3c5204b6	0.012818506
125	0xbc1afdfc	-0.009459969
126	0xbbf4e45c	-0.0074735116
127	0x3bbb2c44	0.005712064
128	0x3c9fc24b	0.019501826
129	0xbc81842f	-0.0158101
130	0xbc1f7362	-0.009732099
131	0x3c7433ba	0.014904911
132	0x3bd8aeec	0.006612649
133	0x3c882b89	0.016622322
134	0xbb9d33e8	-0.0047974475
135	0xbbafe9d4	-0.0053684507
136	0xbc749dd7	-0.01493021
137	0x3c8f2acb	0.01747646
138	0x3c24f38a	0.01006783
139	0xbccd6890	-0.025074273
140	0xbb06d845	-0.0020575684
141	0xbc07cea4	-0.008289013
142	0xbc8cfcbb	-0.017210355
143	0x3cbff411	0.02343181
144	0x3c8543cd	0.016267681
145	0xbc893791	-0.016750129
146	0xbc43b697	-0.011945388
147	0x3c5bf07e	0.013424037
148	0xbbd615dc	-0.0065333676
149	0xbc47d6da	-0.012197221
150	0xbb32116a	-0.0027171024
151	0xbbc486be	-0.005997508
152	0xbcbd2172	-0.023087237
153	0xbc3acb25	-0.0114009725
154	0x3bf4dc14	0.0074725244
155	0xbaa133aa	-0.0012298722
156	0xbc3c72d8	-0.01150199
157	0xbc18a9e8	-0.009317853
158	0xbcb0e509	-0.021593587
159	0xbced6d7d	-0.028982872
160	0x3b708e78	0.0036706012
161	0xbcdfb81a	-0.027309466
162	0xbb5b91d1	-0.0033503661
163	0xbc5a7782	-0.013334157
164	0xbabf841f	-0.0014611519
165	0xbcf8da58	-0.030377552
166	0x3c14873f	0.009065448
167	0x3c91aef1	0.017783614
168	0xbcf5c54e	-0.030001309
169	0xb9a2023b	-0.0003090071
170	0x3bc8e81e	0.006131186
171	0xbcadd820	-0.02122122
172	0x3c16a88c	0.009195458
173	0xbc607d61	-0.013701768
174	0x3c65b3d8	0.014019929
175	0xbc584148	-0.013199158
176	0x3b096ed2	0.0020970595
177	0xbc5232bb	-0.012829478
178	0xbb2cbb3a	-0.0026356713
179	0xbc5d99ad	-0.013525409
180	0x3b8b2755	0.004246632
181	0xbcbb7e5f	-0.022887407
182	0x3c802771	0.015643807
183	0xbcefd9cb	-0.029278656
184	0xbbca7028	-0.006177921
185	0xbbc9249b	-0.006138397
186	0x3b6bfc78	0.0036008637
187	0xbc2e88c7	-0.010652727
188	0xbc8f1aec	-0.017468892
189	0xbca340cb	-0.019928357
190	0xbcdf1564	-0.02723188
191	0xbceea316	-0.0291305
192	0xbc88e118	-0.016708896
193	0xbcc954aa	-0.024576504
194	0x3b400795	0.0029301394
195	0xbcd3e5fd	-0.025866503
196	0xbcefe473	-0.029283738
197	0xbc9960fe	-0.018723007
198	0x3c922032	0.017837618
199	0x3c35ef78	0.011104457
200	0x3c53694e	0.012903525
201	0xbb194270	-0.0023385547
202	0xbc3810d5	-0.011234482
203	0xbc894aa9	-0.016759234
204	0xbb8770ab	-0.004133304
205	0x3ca22996	0.01979522
206	0xbc12805d	-0.008941737
207	0xbaeedf51	-0.0018224512
208	0xbca33193	-0.0199211
209	0xbb334325	-0.0027353254
210	0xbcea5a21	-0.02860743
211	0xbc99e498	-0.01878576
212	0x3c24f9fd	0.0100693675
213	0x3c4f0ccf	0.012637331
214	0xbc8b1e42	-0.016982201
215	0xbc56f499	-0.01311984
216	0x3ca00df5	0.019537905
217	0x39a00988	0.0003052468
218	0x3c04c828	0.008104362
219	0xba1d1be0	-0.00059932284
220	0x3c4ecc17	0.012621901
221	0xbcd32474	-0.025774218
222	0x3c84e1cf	0.016220955
223	0x3a177ba0	0.00057786144
224	0xbc40ba14	-0.0117631145
225	0x3c04cbb6	0.008105209
226	0xbc51d3e8	-0.01280687
227	0xbb8cef9c	-0.0043010246
228	0x3bbd5b26	0.005778688
229	0x3c49407b	0.01228344
230	0xbc94d205	-0.018166551
231	0x3c217307	0.009854085
232	0x3b5c87f7	0.0033650377
233	0xbd02749c	-0.03184949
234	0xbd006edd	-0.031355727
235	0x3c271d7c	0.010199901
236	0xbcaf3565	-0.021387765
237	0x3c538c95	0.012911935
238	0xbc8472f4	-0.016168095
239	0xbc04513e	-0.00807601
240	0xbcf9501d	-0.030433709
241	0x3c6d8ee4	0.0144994
242	0xbc8bf7b3	-0.017085886
243	0xbbf0fcc9	-0.007354353
244	0x3be03aba	0.0068429383
245	0xbce9f19b	-0.02855759
246	0xbbdd1f8c	-0.0067481454
247	0x3c54196f	0.012945517
248	0x3ba80f86	0.0051288037
249	0x3c88ff48	0.01672329
250	0xbb42d064	-0.0029726261
251	0x3c1d73ee	0.009610159
252	0xbb636a3c	-0.0034700772
253	0x3c0c34b6	0.008557489
254	0x3c17df89	0.0092696035
255	0xbcbad1db	-0.022805145

fc1.bias f4 [120]
0	0xbbc037d7	-0.0058660316
1	0xbdbb1c97	-0.091363125
2	0xbbcd9227	-0.006273526
3	0x3e1422fa	0.14466467
4	0x3d4ae5b0	0.049535453
5	0x3e192b41	0.14957906
6	0xbbce768c	-0.006300753
7	0xbe130daa	-0.14360681
8	0xbd4bbf7b	-0.049743157
9	0x3b7d46cd	0.0038646937
10	0x3e3ded11	0.18547465
11	0xbe0b77a3	-0.13619857
12	0xbc354b88	-0.011065371
13	0x3dbfde7b	0.09368607
14	0xbdc16984	-0.09443954
15	0xbd817dca	-0.063228205
16	0xbdcde9cf	-0.10054361
17	0x3d0d8802	0.034553535
18	0xbb42adcb	-0.002970564
19	0x3e33fbca	0.17576519
20	0xbe154ffc	-0.14581293
21	0xbcf7f395	-0.030267516
22	0xbc4802f6	-0.012207737
23	0x3ce38e4f	0.027777819
24	0xbd423c7a	-0.047420956
25	0xbde469db	-0.11153003
26	0x3e592f0b	0.21209352
27	0xbd258902	-0.040413864
28	0xbb2b5145	-0.002614097
29	0xbcf59408	-0.029977813
30	0x3d5047d1	0.05084974
31	0xbb8bd98d	-0.0042678774
32	0xbce8c86c	-0.028415881
33	0x3d2594e8	0.04042521
34	0xbdb7931a	-0.08963604
35	0xbd36e353	-0.044650387
36	0xbcc9af84	-0.024619825
37	0x3e023e90	0.12719178
38	0xbd8e0cba	-0.06936021
39	0xbcbd521e	-0.023110446
40	0xbd4f67d0	-0.050636113
41	0x3bfefa89	0.007781331
42	0xbbd32e92	-0.0064447606
43	0xbdb40b46	-0.08791213
44	0x3e07082e	0.13186714
45	0xbc8e8fad	-0.017402494
46	0xbd47f1c0	-0.048814535
47	0xbd2b2c18	-0.041790098
48	0x3d640753	0.055671047
49	0xbce0ff97	-0.027465625
50	0x3e0fcaae	0.1404216
51	0x3dfe948a	0.12430675
52	0xbe0d3c48	-0.13792527
53	0xbbd2b5df	-0.006430372
54	0xbcd2fa0c	-0.025753997
55	0xbbda889a	-0.006669116
56	0xbd8ce1cb	-0.06879004
57	0x3ea0df87	0.31420538
58	0xbd01ffe4	-0.031738177
59	0xbd920632	-0.07130088
60	0x3e0fdd91	0.14049365
61	0x3e0c3e6f	0.13695692
62	0x3e4f071e	0.20217559
63	0xbc8bfb73	-0.017087674
64	0x3e8f28bf	0.27960774
65	0xbcd073df	-0.025445877
66	0x3d7dc45c	0.06195484
67	0x3d232ec9	0.03983954
68	0x3db21630	0.08695638
69	0x3dc40bfc	0.09572598
70	0x3ca14e3b	0.019690624
71	0xbc2c9ffc	-0.01053619
72	0xbbc0fb38	-0.0058893226
73	0xbe913837	-0.283632
74	0x3d053db3	0.032529544
75	0x3e39d645	0.18148144
76	0xbdf615be	-0.12015866
77	0xbc734316	-0.0148475375
78	0x3d3c930e	0.04603868
79	0x3b8a3616	0.0042178733
80	0x3c8f3dc3	0.017485505
81	0x3ad2894a	0.0016062644
82	0x3e37159c	0.17879337
83	0xbd871464	-0.06595686
84	0xbd007baf	-0.031367954
85	0xbbbb36d5	-0.0057133236
86	0x3e0906ab	0.1338145
87	0xbc0392b7	-0.008030585
88	0xbbe845bc	-0.007088391
89	0x3ea4c8d0	0.32184458
90	0xbd7c055c	-0.06152855
91	0x3e4ae387	0.19813357
92	0x3e4c6895	0.1996177
93	0xbbd32e08	-0.0064446963
94	0xbc14adce	-0.009074641
95	0x3d7ecd89	0.062207732
96	0x3df398db	0.11894389
97	0xbe70888a	-0.23489586
98	0x3baf1687	0.0053432616
99	0xbcd5be3f	-0.026091693
100	0xbd621d39	-0.05520365
101	0xbca4c00f	-0.020111112
102	0x3c4927ea	0.012277583
103	0x3ddf5056	0.10903995
104	0x3e2610b8	0.16217315
105	0xbd99c138	-0.07507557
106	0x3db5d9de	0.088794455
107	0xbe34a9a9	-0.17642845
108	0xbc8ba073	-0.017044282
109	0x3c8ef012	0.017448459
110	0xbc219367	-0.009861804
111	0x3e374c9e	0.17900321
112	0x3e1a902e	0.15094063
113	0xbbe9ea48	-0.007138524
114	0xbd6ab58e	-0.05730205
115	0xbde13b01	-0.10997582
116	0x3e1f5650	0.1556027
117	0x3e02aced	0.12761278
118	0x3bec029c	0.0072024595
119	0xbcbe9fc5	-0.023269543

fc2.weight f4 [84, 120]
0	0xbd4ad90a	-0.04952339
1	0x3e3c1682	0.18367961
2	0xbce8b43a	-0.028406251
3	0x3dc0616c	0.09393582
4	0x3ddb7a3b	0.10716673
5	0xbd28ed1d	-0.041241754
6	0xbcb0a600	-0.02156353
7	0xbeb6e68e	-0.35722774
8	0xbd775d52	-0.06039173
9	0xbce6efc2	-0.028190497
10	0xbe3a75c8	-0.18208992
11	0x3df04998	0.11732787
12	0xbd20d156	-0.03926214
13	0x3d37c29f	0.04486334
14	0xbbcbb6bd	-0.0062168525
15	0xbd116e15	-0.035505373
16	0xbdbf961c	-0.09354803
17	0x3ebb5c42	0.36593825
18	0xbc87fb08	-0.016599193
19	0x3d3c929a	0.046038248
20	0xbe022133	-0.12707977
21	0xbc9c42a4	-0.019074745
22	0xbc05c436	-0.008164456
23	0x3bc91b38	0.006137278
24	0x3a073946	0.0005158376
25	0xbe85db94	-0.26144087
26	0x3d19f0f4	0.037583306
27	0xbd7234f9	-0.05913255
28	0xbc89064c	-0.016726635
29	0xbe14e268	-0.14539492
30	0xbdbf383f	-0.093369
31	0x3da298ac	0.07939276
32	0x3d084b51	0.033274952
33	0xbcc1ee8c	-0.023673318
34	0x3ea7bcc6	0.3276121
35	0xbef89ed6	-0.48558682
36	0xbef67c2f	-0.4814162
37	0xbee322a7	-0.44362375
38	0x3ccc79a2	0.024960343
39	0xbc877ff8	-0.016540512
40	0x3d9fb4df	0.0779817
41	0x3e9a9135	0.3018891
42	0xbaa1dd00	-0.0012349188
43	0x3ed4694c	0.41486585
44	0x3e469ec6	0.19396505
45	0x3bbb70b0	0.0057202205
46	0x3ca0a7a2	0.019611184
47	0xbad2d7e3	-0.0016086068
48	0xbd9a105d	-0.07522652
49	0xbd5c353f	-0.053761717
50	0x3d9a3986	0.07530503
51	0x3dee61cc	0.11639747
52	0xbdb6df72	-0.089293376
53	0x3d78cfdb	0.0607451
54	0x3d87ac65	0.066246785
55	0x3d729074	0.059219792
56	0x3e0af2d1	0.1356919
57	0x3e5d3751	0.21603133
58	0xbd947753	-0.07249322
59	0xbe30d835	-0.17269976
60	0x3d5d99c1	0.05410171
61	0x3e0a4b55	0.135053
62	0x3cfcb18d	0.030846382
63	0x3c609300	0.0137069225
64	0x3f06ad76	0.5260843
65	0x3d722814	0.059120253
66	0xbdb3cd02	-0.087793365
67	0xbe5f5b89	-0.21812262
68	0xbd0c20ec	-0.034211084
69	0xbe03df42	-0.12878135
70	0xbd880295	-0.066411175
71	0x3d80b316	0.06284158
72	0x3cc402c8	0.023927107
73	0x3dc4c572	0.09607972
74	0x3e42d202	0.19025424
75	0xbde56b97	-0.11202162
76	0x3d152a1f	0.036417123
77	0x3db3caa8	0.08778888
78	0xbe3eda2e	-0.18637916
79	0x3d530b4e	0.051524453
80	0x3d792d0c	0.060833976
81	0x3da53428	0.08066589
82	0x3e34334e	0.17597696
83	0xbd8b6295	-0.068059124
84	0x3da48597	0.08033293
85	0xbdb9917f	-0.09060954
86	0xbbe3eed9	-0.006955963
87	0xbd289ca8	-0.041165024
88	0x3d92908e	0.07156478
89	0x3e2578c3	0.16159348
90	0xbe8a7d9e	-0.27048963
91	0xbe1c5fdf	-0.15270947
92	0x3e29a7c2	0.16567901
93	0x3b00e900	0.0019670129
94	0x3d6b73cf	0.05748349
95	0x3d323d07	0.04351523
96	0xbc0b7b0a	-0.0085132215
97	0x3cfd594d	0.030926371
98	0xbd338e2d	-0.04383676
99	0xba781780	-0.0009463951
100	0xbdc46bcd	-0.09590874
101	0xbd84b476	-0.06479733
102	0x3ca58d63	0.02020902
103	0x3e4f2633	0.20229416
104	0xbd8ae221	-0.06781412
105	0xbdf8f27d	-0.12155626
106	0x3ce63670	0.02810213
107	0x3d43034d	0.04761057
108	0xbda7d2ac	-0.08194479
109	0xbb765f80	-0.0037593544
110	0xbd7ce67e	-0.061743252
111	0xbe63a1e8	-0.22229731
112	0xbed6cfeb	-0.41955504
113	0xbdc49a34	-0.095997244
114	0xbe0534eb	-0.13008468
115	0x3d8919c3	0.06694367
116	0x3ee50851	0.44732907
117	0xbe042abb	-0.12906925
118	0x3ce114e8	0.02747579
119	0x3bd50bba	0.006501642
120	0x3d23e831	0.040016357
121	0xbd3fce3c	-0.04682754
122	0x3b4d191b	0.0031295482
123	0xbe8f2264	-0.27955925
124	0x3e3fa97b	0.18716995
125	0x3b5987b2	0.0033192453
126	0x3d086720	0.033301473
127	0x3dddf44e	0.10837613
128	0x3d1caaba	0.038248755
129	0xbd9ef1d2	-0.07760967
130	0xbce61041	-0.028083922
131	0x3d0652f3	0.03279395
132	0x3ca4181b	0.020031026
133	0x3e33274b	0.17495458
134	0x3e3f0ddc	0.1865763
135	0xbd36c0fc	-0.044617638
136	0xbc687af8	-0.014189474
137	0x3e909a20	0.28242588
138	0x3d790a6f	0.060800966
139	0xbe947b1b	-0.29000172
140	0x3cb92afd	0.022603506
141	0xbb3addc0	-0.002851352
142	0x3ad606d5	0.001632894
143	0x3c51cb64	0.01280484
144	0xbad40800	-0.0016176701
145	0x3d247f14	0.040160254
146	0x3d0ea9dc	0.03482996
147	0xbb18d9e0	-0.0023323223
148	0xbcaf4b5d	-0.02139824
149	0xbe8bc4ec	-0.27298677
150	0x3821f804	3.8616374e-05
151	0xbc80f31b	-0.015740922
152	0x3c4de802	0.012567522
153	0xbf28e55c	-0.65974975
154	0xbe0c14b5	-0.13679774
155	0xbed4cd06	-0.4156267
156	0x3e1d0900	0.15335464
157	0xbe04ac66	-0.1295639
158	0xba82a74b	-0.000996807
159	0x3d8974f6	0.06711762
160	0x3d2b308f	0.041794356
161	0xbeb0fecd	-0.34569398
162	0x3d2e5e29	0.042570267
163	0x3e0a37d2	0.13497856
164	0x3eda3fce	0.42626804
165	0x3c615978	0.013754241
166	0x3c7bd285	0.015370016
167	0x3cca15be	0.02466857
168	0x3e95963c	0.29216182
169	0x3d1b456c	0.037908003
170	0xbe794150	-0.24341321
171	0x3e67df0d	0.22643681
172	0xbd9ff943	-0.07811215
173	0xbd24a5b8	-0.040197104
174	0xbd5bafba	-0.053634383
175	0x3c6e78a6	0.014555132
176	0xbe487f19	-0.19579734
177	0x3e1cca35	0.15311511
178	0xbd73297d	-0.05936574
179	0xbe9f740a	-0.31143218
180	0x3dc9e34b	0.09857806
181	0x3e531623	0.20613913
182	0x3d316779	0.04331157
183	0xbcb7c31b	-0.0224319
184	0xbdd228fb	-0.10261723
185	0x3b8240c9	0.003975008
186	0x3bf1404a	0.0073624
187	0xbe96dfca	-0.29467613
188	0xbea0ae0f	-0.31382796
189	0x3e885ec0	0.2663479
190	0x3e066556	0.13124594
191	0xbdb9a23c	-0.09064147
192	0x3c9612f3	0.018319583
193	0xbe08aed9	-0.13347949
194	0x3ea9d005	0.3316652
195	0xbbd2919d	-0.00642605
196	0x3c4982ad	0.012299222
197	0xbd089af8	-0.033350915
198	0xbd05f5e7	-0.032705214
199	0xbe2f6f6a	-0.17132345
200	0xbc43b3d3	-0.011944729
201	0xbd7a93e0	-0.06117618
202	0x3b898dd3	0.004197815
203	0xbbbd5340	-0.0057777464
204	0xbd85a9e3	-0.06526544
205	0x3dbe318f	0.09286796
206	0xbd8ceef8	-0.06881517
207	0xbd9d5233	-0.07681694
208	0x3db9bb25	0.09068898
209	0xbe028b9d	-0.1274857
210	0xbe2771b2	-0.16351965
211	0x3d9f8a76	0.07790081
212	0xbe469d08	-0.1939584
213	0xbca60370	-0.020265311
214	0x3d4e0e22	0.050306447
215	0x3e2d583b	0.16928189
216	0xbe99bddb	-0.3002766
217	0xbee49746	-0.44646662
218	0x3d8927dc	0.06697056
219	0xbd7541f3	-0.059877347
220	0x3da1697a	0.07881446
221	0x3d454a03	0.048166286
222	0x3e592970	0.21207213
223	0x3dfb2ad4	0.12264028
224	0x3e7cfacf	0.24705051
225	0xbdd481a2	-0.10376288
226	0xbe8cd68f	-0.27507445
227	0xbc2acdf0	-0.010425076
228	0x3e2b1fb5	0.16711314
229	0xbd880a82	-0.06642629
230	0xbd106557	-0.035252895
231	0x3e426fef	0.18988012
232	0x3e4fafe6	0.20281944
233	0xbd1de960	-0.038552642
234	0x3e99420c	0.29933202
235	0x3e594ad3	0.2121995
236	0xbd0c16b4	-0.03420134
237	0xbe0e9290	-0.13923097
238	0xbdb73de7	-0.08947354
239	0x3d627e01	0.055295948
240	0xbccd8c7c	-0.025091402
241	0xbe9d9ba2	-0.307828
242	0xbc12f762	-0.0089701135
243	0x3e39952c	0.18123311
244	0xbd39a7c6	-0.045326017
245	0x3da8b866	0.08238296
246	0x3cfdd1c4	0.030983813
247	0x3e096601	0.13417818
248	0x3dd4599c	0.10368654
249	0xbd74bad7	-0.059748497
250	0xbe1eeec7	-0.15520774
251	0xbd8df5a0	-0.06931615
252	0x3d1d5c32	0.038418002
253	0xbde19d4b	-0.110163294
254	0x3ebbebf0	0.36703444
255	0x3d5c1756	0.053733192

fc2.bias f4 [84]
0	0x3d59603a	0.053070284
1	0xbcd9b586	-0.026575815
2	0xbdf26fa3	-0.11837699
3	0x3d68557b	0.056722146
4	0x3e1b20bc	0.15149206
5	0x3e7d313c	0.24725813
6	0x3b5eb9df	0.00339853
7	0xbd1fdd45	-0.03902938
8	0x3e2a0649	0.1660396
9	0xbd7a21a1	-0.061067227
10	0x3c550531	0.013001726
11	0xbbaead43	-0.005330713
12	0xbe338d54	-0.17534381
13	0xbca73d3b	-0.02041494
14	0xbe0bcb4f	-0.13651775
15	0x3dc95c63	0.098320745
16	0xbde0c116	-0.10974328
17	0x3e77e7de	0.24209544
18	0x3d686e9a	0.056746103
19	0x3c0327a9	0.008005061
20	0x3e85051d	0.25980464
21	0x3cf6d365	0.030130098
22	0xbe06d53b	-0.13167278
23	0x3d825edb	0.063657485
24	0xbdc886a6	-0.09791307
25	0xbe611902	-0.21982196
26	0xbd99cf6e	-0.07510267
27	0xbe0ba3a1	-0.13636638
28	0x3e1f279b	0.15542452
29	0xbe349ec8	-0.17638695
30	0xbe0d9a1b	-0.13828318
31	0x3d586b39	0.05283663
32	0x3a9c909e	0.0011944955
33	0xbe0f506e	-0.13995525
34	0xbc5a91ad	-0.013340396
35	0x3d84831f	0.06470322
36	0x3cbcbbd7	0.023038788
37	0x3dc6d8ef	0.097093455
38	0x3cffa87e	0.031208273
39	0xbe380f96	-0.17974696
40	0x3dfa18aa	0.122117355
41	0xbc961926	-0.018322539
42	0x3e76e286	0.2410985
43	0x3e748700	0.23879623
44	0xbda4ba3c	-0.08043334
45	0x3e7a45b0	0.24440646
46	0x3d7afdf0	0.06127733
47	0x3ed2c114	0.41162932
48	0xbdfe79be	-0.12425564
49	0xbe84db8a	-0.25948745
50	0xbe573a95	-0.21018441
51	0xbe1f5f42	-0.15563682
52	0x3dd182a1	0.102299936
53	0x3dbf1d5b	0.09331771
54	0x3db295e5	0.08719996
55	0xbe285b6f	-0.16441129
56	0xbe0626cc	-0.13100737
57	0x3dfb7eb5	0.12280027
58	0x3e013f8f	0.12621902
59	0x3e49e945	0.19717892
60	0x3e35ea4e	0.17765161
61	0xbd94359f	-0.0723679
62	0x3e5d9992	0.21640614
63	0x3e217df0	0.15770698
64	0x3cbaf840	0.022823453
65	0xbd716fbc	-0.05894445
66	0xbdf53963	-0.11973836
67	0xbd565ab5	-0.0523326
68	0x3e30c311	0.17261912
69	0x3e2f7925	0.17136057
70	0x3e0e02fc	0.13868326
71	0xbe053702	-0.13009265
72	0x3ddcca3b	0.1078076
73	0x3edd24f7	0.43192264
74	0xbd846975	-0.06465427
75	0x3c13be17	0.009017489
76	0xbe0f7cf6	-0.14012513
77	0x3c3fadc2	0.011699142
78	0x3c7464d4	0.014916617
79	0xbdd69fc4	-0.104796916
80	0xbe4c6761	-0.19961311
81	0xbb1a4c7a	-0.0023544119
82	0x3d64a524	0.055821553
83	0x3e021d29	0.12706436

fc3.weight f4 [10, 84]
0	0x3e4ff6a5	0.20308931
1	0xbf74754c	-0.9549148
2	0xbe1ecf3d	-0.15508743
3	0x3ddec09c	0.10876581
4	0xbd39b69d	-0.04534017
5	0xbf548d3f	-0.83028024
6	0xbef0663f	-0.46953008
7	0x3ee568ca	0.4480651
8	0x3d8ca29e	0.06866954
9	0x3d0c4970	0.034249723
10	0xbe998b47	-0.29989073
11	0xbe4ef8fc	-0.20212168
12	0x3e11a6f6	0.14223847
13	0xbe70c7c5	-0.23513706
14	0x3e8b691c	0.2722863
15	0xbf154999	-0.58315426
16	0x3e3cb456	0.18428168
17	0xbd566e88	-0.052351505
18	0x3df0b149	0.117525645
19	0x3d3b06df	0.04566085
20	0xbe3364c4	-0.17518908
21	0xbef632e3	-0.48085698
22	0xbe2642f7	-0.16236483
23	0xbe21a76c	-0.15786523
24	0xbeb8d8f1	-0.36103013
25	0xbcbbe4a5	-0.022936175
26	0x3ead14ed	0.33805028
27	0xbf28e856	-0.65979517
28	0xbda64695	-0.08118931
29	0xbe8dc242	-0.2768727
30	0xbe903678	-0.28166556
31	0x3e4cc5bc	0.19997305
32	0xbe026133	-0.12732391
33	0x3e3d942e	0.18513557
34	0x3e2f05bc	0.17092031
35	0x3e361f81	0.17785455
36	0x3c7246de	0.014787404
37	0x3e939f3d	0.28832427
38	0x3ea9c856	0.33160657
39	0xbf0a5704	-0.54039025
40	0x3e753ce3	0.23949008
41	0x3f15039b	0.58208627
42	0x3e8f244f	0.2795739
43	0x3daa5e93	0.0831882
44	0xbd565e66	-0.05233612
45	0x3e630f53	0.22173814
46	0xbf46c598	-0.77645254
47	0xbe293d03	-0.1652718
48	0xbf0431f1	-0.51638705
49	0x3e75a081	0.23987009
50	0xbe41fa7d	-0.1894321
51	0x3cd78ab0	0.026311249
52	0xbea72ca9	-0.3265126
53	0xbd233202	-0.039842613
54	0x3eeb2530	0.4592681
55	0x3dd896e9	0.10575659
56	0xbe2e1d7b	-0.17003433
57	0x3de8eea4	0.11373642
58	0x3eabf4d6	0.33585232
59	0xbe2a0275	-0.166025
60	0xbe61dba6	-0.22056445
61	0xbebb107e	-0.3653602
62	0xbf31a2bd	-0.69388944
63	0x3e24ce16	0.1609424
64	0x3e253dcc	0.16136855
65	0x3ba96e2e	0.005170605
66	0x3ee8a727	0.45440027
67	0x3ea63455	0.324618
68	0xbd6cd173	-0.057816934
69	0xbd949eeb	-0.07256874
70	0x3f119fdd	0.56884557
71	0xbce83d0f	-0.028349428
72	0x3dfe13a2	0.124060884
73	0xbd296f4c	-0.041365907
74	0x3cc56586	0.024096262
75	0xbc88bf19	-0.016692685
76	0x3d4c6aa4	0.049906388
77	0xbe07184a	-0.1319286
78	0x3e10445b	0.14088576
79	0x3e7fbca8	0.2497431
80	0xbe8d2f6d	-0.27575245
81	0x3e00a98d	0.12564678
82	0x3c25e88e	0.010126246
83	0xbd3c4e4c	-0.045973107
84	0xbe29ef76	-0.16595253
85	0x3e880a7b	0.26570496
86	0x3e97a1a6	0.29615515
87	0x3e5ba8fe	0.21451184
88	0xbe2e9601	-0.1704941
89	0x3cac2ab7	0.021016462
90	0xbe709f12	-0.2349818
91	0x3d0db255	0.0345939
92	0xbde99fee	-0.11407457
93	0x3df81f22	0.12115313
94	0xbee00eb8	-0.4376123
95	0x3f139fbe	0.5766562
96	0xbdd83be8	-0.10558301
97	0x3e814655	0.25248972
98	0xbf038623	-0.5137655
99	0x3e27c4ee	0.16383716
100	0x3da4b8a8	0.08043033
101	0xbf05fbf3	-0.5233757
102	0xbe968489	-0.2939799
103	0xbd527db0	-0.051389396
104	0xbf268441	-0.65045553
105	0xbd8c527a	-0.06851669
106	0xbdb020a1	-0.085999735
107	0x3b006d9f	0.001959659
108	0x3e9b08b7	0.30280086
109	0x3e2050eb	0.15655868
110	0xbe0c4419	-0.13697852
111	0x3eaf2216	0.34205693
112	0xbeff278c	-0.4983486
113	0xbddf82aa	-0.10913594
114	0xbdb6bbc5	-0.08922533
115	0x3e28c359	0.16480769
116	0xbcc4529c	-0.023965172
117	0xbf5bee9d	-0.8591097
118	0x3efbdf6c	0.49193895
119	0x3e350cf0	0.17680717
120	0x3e891203	0.26771554
121	0xbec58112	-0.38575035
122	0xbcce225f	-0.025162874
123	0x3f1f2b8e	0.62175834
124	0xbf7e0121	-0.9922047
125	0xbeed6c61	-0.4637175
126	0xbd32850b	-0.04358391
127	0xbdd87824	-0.1056979
128	0x3e86dcfc	0.26340473
129	0xbe6ebe78	-0.23314846
130	0xbde77125	-0.113008775
131	0x3d3f7bce	0.04674893
132	0xbe3a500c	-0.18194598
133	0xbe5fc538	-0.21852577
134	0xbed9be2e	-0.42527908
135	0x3e70c259	0.23511638
136	0xbe4db1b1	-0.20087315
137	0x3e746384	0.23866087
138	0xbe9e72af	-0.30946872
139	0x3dd09551	0.1018473
140	0x3ea8923d	0.3292407
141	0x3e3954bb	0.18098728
142	0x3ded96bf	0.11601018
143	0xbe73946d	-0.23787089
144	0xbf066411	-0.5249644
145	0xbe8f1b70	-0.2795062
146	0x3dd7c133	0.10534897
147	0xbf430575	-0.761802
148	0xbe18f81c	-0.14938396
149	0xbf27bac6	-0.6551937
150	0xbe8843ac	-0.2661413
151	0xbe12ebde	-0.14347789
152	0x3d10d6f9	0.035361264
153	0xbef66bf6	-0.48129243
154	0x3bc98ad2	0.006150582
155	0x3e50006c	0.20312661
156	0xbef85280	-0.48500443
157	0x3d96471a	0.0733778
158	0x3e104e0c	0.14092273
159	0x3d3cdc07	0.046108272
160	0xbdcf156b	-0.10111507
161	0x3e0593cf	0.13044666
162	0x3e612a4a	0.21988788
163	0x3e09f542	0.13472465
164	0xbe91414c	-0.2837013
165	0xbe7d3f0b	-0.2473108
166	0xbe9a0802	-0.30084234
167	0x3e2b2d4a	0.16716495
168	0xbdc90383	-0.09815123
169	0xbdaafe40	-0.083492756
170	0x3e2c563c	0.16829771
171	0xbd90ff12	-0.07079901
172	0xbdb971ea	-0.090549305
173	0xbbe96154	-0.007122198
174	0xbe83c0c0	-0.25732994
175	0x3ea1813b	0.31543908
176	0xbc4eb853	-0.0126171885
177	0x3dd1d953	0.102465294
178	0x3e834bd6	0.25643796
179	0xbcb1d379	-0.021707283
180	0x3e08b53a	0.13350382
181	0x3e945460	0.28970623
182	0x3e4080e0	0.18799162
183	0xbe3a2f25	-0.18182047
184	0xbe341f45	-0.17590053
185	0x3e2370b2	0.15960959
186	0xbde5ac16	-0.112144634
187	0x3db8cfb4	0.09023991
188	0x3ac7371f	0.0015198922
189	0x3d0c9808	0.034324676
190	0xbdc347cb	-0.09535178
191	0xbf4b07c3	-0.7930872
192	0x3e09bd80	0.13451195
193	0x3e282034	0.16418535
194	0x3cc22094	0.023697175
195	0xbdb423f6	-0.087959215
196	0x3db9e130	0.09076154
197	0x3ebe6481	0.37186053
198	0xbb9b65fb	-0.0047423816
199	0x3edfc8e1	0.43707946
200	0x3e3e3c9f	0.18577813
201	0x3eadc923	0.33942518
202	0xbe1e9c0d	-0.15489216
203	0xbe7a95d9	-0.24471225
204	0xbf017087	-0.5056233
205	0xbec605d5	-0.38676324
206	0x3df8f864	0.12156752
207	0x3e8a721a	0.27040178
208	0x3e258577	0.16164194
209	0xbf0fe0a3	-0.56202143
210	0x3cdfb0b6	0.027305942
211	0xbf115fcc	-0.567868
212	0xbe9ba32c	-0.30397928
213	0x3e49b963	0.19699626
214	0xbd8f920c	-0.07010278
215	0xbe877d9b	-0.26463017
216	0x3ea62e1d	0.32457057
217	0x3eee95c6	0.46598643
218	0xbf0a3c84	-0.5399859
219	0xba9821c5	-0.0011606744
220	0x3d9783a8	0.07398158
221	0xbeaf3f6f	-0.34228083
222	0xbd145f48	-0.03622368
223	0x3d4f62ba	0.050631262
224	0xbdc0b078	-0.09408659
225	0xbe95354e	-0.2914223
226	0x3e59edd9	0.21282138
227	0xbe286b10	-0.16447091
228	0x3b3a7a54	0.002845426
229	0xbf983300	-1.1890564
230	0x3df3ae27	0.11898451
231	0xbd698975	-0.057015855
232	0x3e0908e0	0.13382292
233	0x3e0011e2	0.12506822
234	0x3e0bd131	0.13654019
235	0x3e8b6996	0.27228993
236	0xbedef5ab	-0.43546805
237	0x3ce315c0	0.027720332
238	0x3ed4ea7d	0.4158515
239	0x3cc37942	0.023861531
240	0x3e2e1157	0.16998802
241	0x3d07c1eb	0.03314392
242	0xbdf910c8	-0.12161404
243	0x3e90c4fe	0.28275293
244	0xbca191fc	-0.019722931
245	0x3e166b8d	0.14689465
246	0xbe98d637	-0.29850933
247	0xbe59f0c9	-0.21283258
248	0xbf10bd5c	-0.5653894
249	0xbebabfe5	-0.3647453
250	0x3d307395	0.043078978
251	0x3e196a65	0.14981993
252	0x3db8d000	0.09024048
253	0xbe6f8dd9	-0.23393954
254	0x3e7f94a4	0.24959046
255	0x3dd3e1f1	0.10345829

fc3.bias f4 [10]
0	0x3d727372	0.05919213
1	0x3c5c5fe1	0.013450594
2	0xbe5de5bb	-0.21669666
3	0x3dec1f04	0.11529353
4	0x3d983cea	0.074334934
5	0x3e87de45	0.26536766
6	0xbdc1b250	-0.094578385
7	0xbd95cf16	-0.07314889
8	0x3d6a7e4b	0.05724935
9	0xbe6d3a79	-0.23166837

position_fc1.weight f4 [64, 3]
0	0x3e85eba3	0.2615634
1	0x3e7da6bd	0.24770637
2	0xbe7dedda	-0.24797764
3	0x3cfbf2f5	0.0307555
4	0xbeabdd3c	-0.33567226
5	0x3d153722	0.036429532
6	0xbd9a2ae1	-0.0752771
7	0x3ea4600e	0.32104534
8	0x3a54d8a3	0.00081194396
9	0x3e66a710	0.22524667
10	0xbee60d86	-0.44932193
11	0xbf177a06	-0.5917057
12	0xbd673860	-0.056450248
13	0x3d6bc735	0.057563026
14	0xbf10302f	-0.5632352
15	0x3ec59118	0.3858726
16	0xbdb8cd14	-0.090234905
17	0xbea98232	-0.33107144
18	0x3ef924a8	0.4866078
19	0xbead4183	-0.33839044
20	0xbe1dc17d	-0.15405841
21	0x3f065a3c	0.52481437
22	0xbdfa6a1d	-0.12227271
23	0xbeb83e57	-0.35985062
24	0x3eec7571	0.4618335
25	0xbe8e9edd	-0.27855578
26	0xbbe2c0c0	-0.0069199502
27	0xbeaaf107	-0.33387014
28	0x3f174e1f	0.5910358
29	0x3d908dc5	0.070582904
30	0x3decb3d3	0.11557736
31	0x3eaf8f65	0.3428909
32	0x3e9db780	0.30804062
33	0xbe0fb993	-0.14035635
34	0xbbf07170	-0.0073377416
35	0x3ed456d4	0.41472495
36	0xbe933d87	-0.2875788
37	0x3e18cebc	0.14922613
38	0xbf171ab3	-0.59025115
39	0xbbff81d3	-0.0077974587
40	0xbecaf0a3	-0.39636716
41	0xbdcffba7	-0.10155421
42	0x3dba457a	0.09095283
43	0xbea74e8f	-0.32677123
44	0x3e9d70da	0.3075016
45	0xbda9750e	-0.082742795
46	0xbea66b5d	-0.32503787
47	0x3e881f9a	0.2658661
48	0x3d980fe0	0.07424903
49	0xbed16a74	-0.4090153
50	0x3e887606	0.26652545
51	0x3e9e1eb4	0.308828
52	0xbe870593	-0.2637144
53	0x3e1f4889	0.15555014
54	0x3e90ed72	0.28306156
55	0xbd52a647	-0.051428106
56	0xbdad4c99	-0.084618755
57	0x3e88e650	0.26738214
58	0x3e8ab37b	0.27090058
59	0xbe2165c3	-0.15761475
60	0x3dde20a0	0.108460665
61	0xbf089add	-0.533613
62	0x3da0d4c8	0.07853085
63	0x3e8c7e3a	0.27440053
64	0x3de5beff	0.1121807
65	0xbe9ba411	-0.3039861
66	0x3efc69d2	0.49299484
67	0xbe89dbb3	-0.2692543
68	0x3f0060e4	0.50147843
69	0x3e89d495	0.2692
70	0xbd4939de	-0.049127452
71	0x3e820b6c	0.2539934
72	0x3eff7c57	0.4989955
73	0x3ee269e6	0.4422142
74	0xbea84b43	-0.3286992
75	0x3d9ec5d3	0.07752576
76	0xbe808ce8	-0.25107503
77	0xbd9d56ae	-0.076825485
78	0x3e9c9d6f	0.30588862
79	0x3e70d7d7	0.23519836
80	0x3e994e47	0.29942533
81	0x3de7a8ee	0.11311518
82	0x3e8532e7	0.26015398
83	0x3ef62fb1	0.4808326
84	0xbec8c8be	-0.39215654
85	0x3ea34777	0.3189046
86	0x3d6db29c	0.058031663
87	0x3eadbf83	0.33935174
88	0xbc3b8ed4	-0.011447627
89	0xbe912fc4	-0.28356755
90	0xbefd0445	-0.4941732
91	0xbf15950d	-0.5843056
92	0x3ece6123	0.40308484
93	0x3e04b210	0.1295855
94	0xbde20c9c	-0.11037561
95	0xbed19826	-0.40936393
96	0x3e89f894	0.26947463
97	0x3f077d60	0.5292568
98	0xbeee2fbf	-0.46520802
99	0xbe61e788	-0.22060978
100	0x3f03fd93	0.515588
101	0x3e574dbb	0.21025746
102	0xbe6b4c62	-0.22978356
103	0xbf0863dd	-0.5327738
104	0x3e41af96	0.18914637
105	0x3a1b47c6	0.0005923476
106	0x3baf07b6	0.0053414954
107	0xbd30e324	-0.04318537
108	0x3eacf203	0.3377839
109	0x3e92c6d0	0.28667307
110	0xbd6ad270	-0.057329595
111	0x3ddf8354	0.10913721
112	0x3d7d7d62	0.061887152
113	0x3e307df0	0.17235541
114	0xbde8c8b2	-0.113664046
115	0x3e267ead	0.1625926
116	0xbe2325b0	-0.15932345
117	0x3b302905	0.0026879918
118	0x3e92b0d0	0.28650522
119	0xbef92e81	-0.48668292
120	0xbecf7bf4	-0.40524256
121	0xbcbf7b83	-0.023374325
122	0xbccadb39	-0.024762737
123	0xbe0bb534	-0.13643342
124	0xbe88139c	-0.2657746
125	0xbe26431c	-0.16236538
126	0xbebbb33d	-0.36660185
127	0xbed78a67	-0.4209778
128	0x3ead9a46	0.33906764
129	0x3eff7b5d	0.49898806
130	0xbee78072	-0.45215183
131	0x3f05c38f	0.52251524
132	0xbd2aeba0	-0.041728616
133	0xbee99b62	-0.4562636
134	0xbec4511d	-0.38343135
135	0xbf1fdde0	-0.6244793
136	0xbee93614	-0.4554907
137	0xbc008b8b	-0.00784577
138	0x3f0885f9	0.53329426
139	0xbeb29acd	-0.3488373
140	0xbef26ddd	-0.47349444
141	0xbe885570	-0.26627684
142	0x3e863c39	0.2621782
143	0xbeecad4d	-0.46225968
144	0xbc05d397	-0.008168123
145	0xbf038184	-0.513695
146	0xbd35393c	-0.044244036
147	0x3e3ce6f9	0.18447484
148	0xbed68338	-0.41896987
149	0x3d8cd159	0.068758674
150	0x3def14d6	0.11673896
151	0xbe54e36b	-0.20789878
152	0x3d3150d5	0.043289978
153	0x3ef421c5	0.47682014
154	0xbef2ed31	-0.47446588
155	0x3cd178ad	0.025570238
156	0xbdf07178	-0.117403924
157	0x3cf3c319	0.029756116
158	0x3d37a9a4	0.044839516
159	0x3e9d2f56	0.30700177
160	0x3ea7db4d	0.327845
161	0x3ed42191	0.4143186
162	0xbf03a826	-0.5142845
163	0x3c7e5540	0.015523255
164	0xbd89ab40	-0.067221165
165	0x3eb22422	0.34793192
166	0x3ec014af	0.3751578
167	0x3ed86da0	0.42271137
168	0x3c911de1	0.017714443
169	0x3d2a7234	0.04161282
170	0x3c8c1e55	0.017104307
171	0xbf3617d9	-0.7113014
172	0x3e847619	0.2587135
173	0x3ec5acb0	0.38608313
174	0x3e84836b	0.25881514
175	0x3d7e8dfd	0.06214713
176	0xbea0c1fb	-0.31397995
177	0x3eb222e2	0.34792238
178	0x3e862038	0.26196456
179	0xbe496a01	-0.19669344
180	0x3ecf1ed7	0.40453216
181	0x3c4b2a00	0.01240015
182	0xbed92fd8	-0.42419314
183	0xbe72c2d3	-0.23707132
184	0xbeaa8c51	-0.33310178
185	0x3ec7e1b0	0.39039373
186	0xbdb9bb4a	-0.09068926
187	0x3dd304bf	0.103036396
188	0x3e11df09	0.14245237
189	0xbe73984a	-0.23788562
190	0xbeef88e0	-0.46784115
191	0xbed71056	-0.4200465

position_fc1.bias f4 [64]
0	0x3e6709cf	0.22562335
1	0xbd434654	-0.047674492
2	0x3e368614	0.17824584
3	0xbe66e1e9	-0.22547115
4	0x3cf468ba	0.029835094
5	0x3ebf9220	0.37416172
6	0x3ef445ec	0.47709596
7	0xbe74559b	-0.23860781
8	0xbe5d6056	-0.2161878
9	0xbe856ce9	-0.26059654
10	0xbef345bd	-0.47514144
11	0xbe09eadd	-0.134685
12	0xbe18cec2	-0.14922622
13	0x3dcae4b3	0.09906902
14	0x3eb4e678	0.35332084
15	0x3e98188f	0.29706237
16	0xbf11a672	-0.568946
17	0x3e7635e4	0.24043995
18	0xbe2852f0	-0.16437888
19	0x3e83a194	0.25709212
20	0xbefdcbb0	-0.49569464
21	0x3e826a5b	0.25471768
22	0xbe6e3545	-0.23262508
23	0xbd371151	-0.04469425
24	0x3d8cbe1e	0.068721995
25	0x3eb4aaf6	0.35286683
26	0x3e75c02b	0.23999088
27	0xbedad38d	-0.42739525
28	0xbea5eaf8	-0.3240583
29	0xbeacd71c	-0.33757865
30	0xbece6123	-0.40308484
31	0xbe33629e	-0.17518088
32	0xbd35aeca	-0.044356145
33	0xbf119444	-0.5686686
34	0x3e028a15	0.12747987
35	0xbb7c1d3a	-0.0038469569
36	0xbe86303a	-0.2620867
37	0x3f032210	0.5122385
38	0x3c638808	0.013887413
39	0x3eb3682e	0.3504042
40	0x3ccb4892	0.024814878
41	0xbe9384be	-0.28812212
42	0xbef0c677	-0.47026417
43	0xbe850075	-0.2597691
44	0xbdaae938	-0.08345264
45	0x3dd92ce7	0.106042676
46	0x3ee2b857	0.44281265
47	0xbe8a3076	-0.26990098
48	0x3d26dbc0	0.040736914
49	0xbe4998e8	-0.19687235
50	0xbde87676	-0.1135072
51	0x3e343cfc	0.17601389
52	0xbd51b482	-0.051197536
53	0xbe6fce7a	-0.23418608
54	0xbea923d6	-0.33035153
55	0x3e715e10	0.23571038
56	0xbd467aab	-0.04845683
57	0xbeede641	-0.46464732
58	0x3eac4be6	0.33651656
59	0x3ead4c3e	0.3384723
60	0xbecc5282	-0.39906698
61	0x3e11667b	0.1419925
62	0xbe2df0ad	-0.16986342
63	0x3e62cf78	0.22149456

position_fc2.weight f4 [1, 64]
0	0x3db56b04	0.08858302
1	0xb0ba5897	-1.355846e-09
2	0xbd036eef	-0.032088216
3	0xbbe65e61	-0.007030294
4	0x3d64a04c	0.055816934
5	0x3dba3f65	0.09094123
6	0x3db5c852	0.08876099
7	0x3de7d6f6	0.113202974
8	0xbc9ee4ca	-0.019396205
9	0xbe28a3fa	-0.16468802
10	0x3302e49e	3.047591e-08
11	0x3dcb9829	0.099411316
12	0xb17f94d5	-3.7191985e-09
13	0x3a32a08e	0.00068140856
14	0x3d296923	0.04136003
15	0xbd5a6478	-0.05331847
16	0xbd4a8efc	-0.049452767
17	0xbc4aafd6	-0.012371024
18	0x3d8ef103	0.06979563
19	0x3c70834a	0.014679739
20	0xbd052eac	-0.032515213
21	0x3c841439	0.016122924
22	0xbd89ead4	-0.06734243
23	0xbcccf6b6	-0.025019985
24	0xbd9910f0	-0.07473934
25	0x3c6bb46a	0.014386276
26	0x3cc94334	0.024568178
27	0x3db56ba6	0.08858423
28	0xb2e4fd19	-2.6657789e-08
29	0x3ab3e6cb	0.0013725398
30	0xb39c3235	-7.273449e-08
31	0xbc44afb0	-0.012004778
32	0x3d597ce0	0.053097606
33	0x3d657678	0.056021184
34	0x3d53601d	0.051605333
35	0x378d10f0	1.6816397e-05
36	0x3dd89337	0.10574954
37	0x3db52312	0.0884458
38	0xbdadbe34	-0.08483544
39	0x3b62f149	0.003462868
40	0xb765eb74	-1.3704284e-05
41	0xbcbd1648	-0.023081914
42	0xbd5dc8d4	-0.054146603
43	0xbda8dc98	-0.082452
44	0xbd0fbaa8	-0.03509012
45	0xbcf8a666	-0.030352782
46	0xbd5c78d6	-0.053826176
47	0x3b54421e	0.0032388042
48	0x39b9735a	0.00035371893
49	0xb41c4c78	-1.4556451e-07
50	0xb9cbbb22	-0.00038858602
51	0xbd4f3740	-0.0505898
52	0x388a17d4	6.584791e-05
53	0x3d76e456	0.060276352
54	0x3d30c960	0.043160796
55	0xbda20ae6	-0.07912235
56	0x37f6e3ae	2.9431507e-05
57	0x36359139	2.7055632e-06
58	0x3cca3a83	0.024686104
59	0xbd9febad	-0.078086235
60	0x3b596187	0.0033169703
61	0x3cc4f291	0.024041446
62	0x3971f371	0.0002307424
63	0xbcd4ef30	-0.02599296
