checkpoints/LeNetwoPE_cifar10.pth (torch, 251844 bytes, 10 tensors)

conv1.weight f4 [6, 3, 5, 5]
0	0x3e2cb42e	0.16865608
1	0xbdff70d0	-0.12472689
2	0xbe4acc22	-0.19804433
3	0x3b871608	0.0041224994
4	0x3e1d9035	0.15387042
5	0xbdca28c7	-0.09871059
6	0xbed0f43c	-0.40811336
7	0x3db68b5e	0.08913301
8	0x3e8dbf59	0.2768505
9	0xbdde7ca8	-0.1086362
10	0xbebce005	-0.36889663
11	0xbea19e8f	-0.31566283
12	0x3edf175c	0.4357251
13	0x3d43c661	0.04779661
14	0xbcca1d08	-0.024672046
15	0xbe86374a	-0.26214057
16	0xbe4dc86c	-0.20095986
17	0x3efef63f	0.49797246
18	0xbe0ecf6c	-0.13946313
19	0x3cd62328	0.02613981
20	0xbe1e4430	-0.15455699
21	0xbe014402	-0.12623599
22	0x3df0d7c3	0.11759903
23	0xbcc474d3	-0.023981487
24	0x3d682010	0.056671202
25	0x3d136a73	0.03599019
26	0xbdfe9de9	-0.12432463
27	0x3c22bc67	0.009932614
28	0x3e031a79	0.12803067
29	0xbc839f24	-0.016067095
30	0xbca98182	-0.020691637
31	0xbe1dc224	-0.1540609
32	0x3e0e0ac1	0.1387129
33	0x3e5f76a5	0.21822603
34	0xbc1fc159	-0.0097506875
35	0xbe50577e	-0.20345876
36	0xbdc8ec26	-0.09810667
37	0x3ebc9a7f	0.3683662
38	0x3d884aba	0.06654878
39	0xbdf185f6	-0.11793129
40	0xbe4e8007	-0.20166026
41	0xbdd1b083	-0.10238745
42	0x3f00e7a9	0.50353485
43	0xbe0d3e9a	-0.13793412
44	0x3d62e3e6	0.055393122
45	0xbd17df2f	-0.03707808
46	0xbe64c10a	-0.22339264
47	0x3ecadf8c	0.39623678
48	0xbbe792dd	-0.007067068
49	0x3dcacdba	0.099025205
50	0x3dfd1ca0	0.123589754
51	0xbe4be3bf	-0.19911097
52	0xbd6c01a7	-0.057618763
53	0x3cc6d14c	0.024269722
54	0x3d360b64	0.044444457
55	0xbd76bbb7	-0.060237613
56	0xbe95c5f8	-0.292526
57	0x3e1dcc61	0.15409996
58	0x3e0b5494	0.13606483
59	0xbd145220	-0.036211133
60	0xbe0f72c1	-0.14008619
61	0xbe6e10d7	-0.23248611
62	0x3ec2ea68	0.38069463
63	0xbd596fff	-0.053085323
64	0xbd82e96e	-0.063921794
65	0xbdbaa1fc	-0.09112927
66	0xbc814e4f	-0.01578441
67	0x3ea19824	0.31561387
68	0xbcaf18bd	-0.0213741
69	0x3dc74730	0.09730375
70	0xbd592922	-0.053017743
71	0xbe298aa4	-0.16556793
72	0x3e78c477	0.24293695
73	0xbd8cb299	-0.06870002
74	0xbdb83949	-0.08995301
75	0xbd428780	-0.047492504
76	0xbd76df78	-0.06027171
77	0xbc5abc9c	-0.013350632
78	0x3e8882c4	0.26662266
79	0x3ee25295	0.4420363
80	0x3d2ec4ec	0.042668268
81	0xbda8b905	-0.08238415
82	0xbe619129	-0.2202803
83	0xbe7581fa	-0.23975363
84	0x3d0dd36f	0.034625467
85	0xbe8432f7	-0.25820133
86	0xbc8f0e21	-0.017462792
87	0xbc9d926e	-0.019234862
88	0x3d25f251	0.040514294
89	0xbdc64212	-0.09680571
90	0xbeb6faab	-0.3573812
91	0xbe8eb55a	-0.27872735
92	0xbe07534d	-0.1321537
93	0x3d201ea1	0.03909171
94	0x3d29fec6	0.041502737
95	0xbe8bf354	-0.27334082
96	0xbea5bfda	-0.32372934
97	0xbe9011d1	-0.28138593
98	0xbe99b9e1	-0.30024627
99	0xbdfac730	-0.12245023
100	0xbd15cd7a	-0.03657291
101	0xbb1da7a1	-0.0024056213
102	0x3cd11e0b	0.02552702
103	0x3e53cbdc	0.20683235
104	0x3ea2c091	0.31787542
105	0xbdbada27	-0.091236405
106	0xbd9ee29d	-0.07758067
107	0xbe14f782	-0.14547542
108	0xbe3a5f4d	-0.18200417
109	0xbe27c088	-0.16382039
110	0x3d9418a6	0.07231264
111	0x3e4c315d	0.19940706
112	0xbd5e6037	-0.054290976
113	0xbc2d64c2	-0.010583105
114	0xbe0fa2d6	-0.1402696
115	0x3d47fba2	0.04882396
116	0x3e05e56b	0.13075797
117	0x3d3ed46e	0.046589307
118	0x3ea76133	0.32691345
119	0x3e9ccd44	0.30625355
120	0xbd64e41b	-0.0558816
121	0x3ddc12ae	0.1074575
122	0x3d788da8	0.06068197
123	0x3dfdb185	0.12387375
124	0xbcf7c92d	-0.030247295
125	0x3d855fe4	0.0651243
126	0xbd808c2a	-0.06276734
127	0x39e3344a	0.00043335772
128	0x3ba33d6c	0.0049816873
129	0xbd42aa36	-0.047525607
130	0x3d51592d	0.051110435
131	0xbdfc26aa	-0.12312062
132	0xbe7eb4c7	-0.24873649
133	0xbecd75e6	-0.40129012
134	0xbeb77ab7	-0.35835811
135	0x3e43ffa8	0.19140494
136	0x3e6a1844	0.22860819
137	0x3e204a71	0.15653397
138	0x3c8d1b34	0.017224886
139	0xbe54ccb8	-0.20781219
140	0x3e1fca21	0.1560445
141	0x3e997c09	0.29977444
142	0x3e97f152	0.296763
143	0x3e78182b	0.2422797
144	0x3d9957ad	0.07487426
145	0x3e3209c2	0.17386535
146	0x3e760ba6	0.24027881
147	0x3e4d7462	0.20063928
148	0x3dd7128e	0.10501586
149	0xbb07e3ab	-0.0020735066
150	0x3d586402	0.05282975
151	0x3d401c37	0.046901908
152	0xbdbef7fe	-0.093246445
153	0xbdfa4c02	-0.122215286
154	0x3d63dbc0	0.05562949
155	0x3e2fe7f9	0.17178334
156	0x3eacb2f0	0.33730268
157	0x3d90dbd8	0.07073182
158	0xbe6c3119	-0.23065604
159	0xbf0d054d	-0.55086213
160	0x3eaa5138	0.3326509
161	0x3ebf50eb	0.37366423
162	0xbc2fa794	-0.010721106
163	0xbe053db9	-0.13011827
164	0xbebde36b	-0.3708757
165	0xbe896d0d	-0.26841012
166	0xbe971b2f	-0.29512927
167	0xbd72319d	-0.059129346
168	0x3ea4e5fb	0.3220671
169	0x3e9de4a4	0.308385
170	0xbc588838	-0.013216071
171	0xbebca319	-0.36843184
172	0xbdcd800c	-0.10034189
173	0x3d02d7b7	0.031944003
174	0x3ee231b1	0.44178537
175	0xbd596afd	-0.053080548
176	0x3d364392	0.044498034
177	0x3d068dac	0.032849953
178	0xbd1de5d6	-0.038549267
179	0xbdc46eab	-0.09591421
180	0x3e5207fa	0.20510855
181	0x3ea2ec27	0.31820795
182	0x3e811dbe	0.25218004
183	0xbe1a0eb1	-0.15044667
184	0xbed1da1f	-0.40986726
185	0x3e5e6df8	0.21721637
186	0x3ecbf5a1	0.39835837
187	0xba9ef488	-0.0012127319
188	0xbe01dc78	-0.12681758
189	0xbeb79fcb	-0.358641
190	0xbeab0582	-0.3340264
191	0xbeb22400	-0.3479309
192	0xbd459816	-0.048240744
193	0x3ea20e8c	0.31651723
194	0x3ea904e2	0.33011538
195	0xbddfd91a	-0.10930081
196	0xbe98853c	-0.2978915
197	0xbe4f5c64	-0.20250088
198	0x3a95b3be	0.0011421365
199	0x3ed42428	0.41433835
200	0x3c17ea72	0.009272205
201	0xbdc1eb3e	-0.09468697
202	0x3e27ddea	0.16393247
203	0xbca68261	-0.020325841
204	0xbdf5f163	-0.120089315
205	0x3d436221	0.047701005
206	0x3e689bda	0.22715703
207	0x3e5ca2f0	0.2154653
208	0xbe202a10	-0.15641046
209	0xbec1a2e6	-0.37819594
210	0x3e4ea16c	0.20178765
211	0x3ea66e33	0.3250595
212	0x3d5197da	0.051170208
213	0xbe2a5643	-0.16634469
214	0xbea4ac65	-0.32162777
215	0xbe4e06b2	-0.20119742
216	0xbe00c777	-0.1257609
217	0xbdf12e1f	-0.11776375
218	0x3e738957	0.2378286
219	0x3e5391d4	0.20661098
220	0xbe0f36ad	-0.13985701
221	0xbe7fce88	-0.24981129
222	0x3d6c7b78	0.057734936
223	0x3df6a959	0.12044019
224	0x3e6572c5	0.22407062
225	0xbdb8cd8f	-0.09023582
226	0xbd2ba701	-0.041907314
227	0x3d7c54fc	0.061604485
228	0x3e0b9194	0.13629752
229	0x3de1b12f	0.11020123
230	0xbe1fb745	-0.15597256
231	0xbe86c3fa	-0.26321393
232	0xbe30cf06	-0.17266473
233	0x3d6b96da	0.05751691
234	0xbd225eac	-0.039641067
235	0xbdb16354	-0.086615235
236	0xbe52de47	-0.20592605
237	0xbe44cc9d	-0.19218679
238	0x3db68b4d	0.08913288
239	0xbcbf5fd9	-0.023361133
240	0x3cffa128	0.031204775
241	0xbe30ab0d	-0.1725275
242	0xbd6535f0	-0.055959642
243	0xbc8312c6	-0.016000163
244	0x3d4de15e	0.050263755
245	0x3d50cdd7	0.050977554
246	0xbcab308d	-0.020897174
247	0x3c1116bc	0.008855518
248	0xbd4f7646	-0.050649904
249	0x3d952670	0.07282722
250	0xbe47537a	-0.19465438
251	0xbe376468	-0.17909396
252	0x3d1d7843	0.03844477
253	0x3dd35f44	0.10320905
254	0xbdff3ced	-0.124627925
255	0x3bf7f13c	0.007566599

conv1.bias f4 [6]
0	0x3e3a3282	0.1818333
1	0x3e8616e0	0.26189327
2	0x3d59dfe1	0.053192023
3	0x3eb27e97	0.34862205
4	0x3c7c4249	0.015396663
5	0xbd2c4809	-0.042060886

conv2.weight f4 [16, 6, 5, 5]
0	0xbd95354b	-0.072855555
1	0xbd5a4000	-0.05328369
2	0xbdc6e5b7	-0.097117834
3	0x3d82d509	0.063882895
4	0x3df5d824	0.12004116
5	0x3c612f12	0.013744133
6	0xbe8e5fa0	-0.2780733
7	0xbe4615dc	-0.19344276
8	0xbe3f9cd6	-0.18712172
9	0x3e0d44b1	0.13795735
10	0xbe0ec01c	-0.13940471
11	0xbdec54dc	-0.11539623
12	0xbd7ff06b	-0.06248514
13	0xbe2b8b9e	-0.16752478
14	0xbe0ca217	-0.13733707
15	0xbdd17ff0	-0.1022948
16	0xbc9ddf91	-0.019271644
17	0x3d420653	0.047369312
18	0xbe49b954	-0.19699603
19	0xbec4ecd0	-0.38461924
20	0x3dd38a3d	0.10329101
21	0x3d22b004	0.039718643
22	0x3e017eea	0.1264607
23	0x3e0acf48	0.13555634
24	0xbdbd1038	-0.09231609
25	0x3ecdde9a	0.40208894
26	0x3e688cef	0.22710012
27	0x3d80beec	0.062864155
28	0xbcf257c5	-0.029582867
29	0xbd0d79f4	-0.03454013
30	0x3e8f8f24	0.28038895
31	0x3ee121af	0.4397101
32	0x3e963563	0.29337606
33	0x3cb92c9f	0.022604285
34	0xbe6d2389	-0.23158087
35	0x3eccce3a	0.40001088
36	0x3ee7d624	0.45280564
37	0x3e73ce74	0.23809224
38	0x3e9036b3	0.28166732
39	0x3dc5df34	0.09661713
40	0x3ef9d181	0.4879265
41	0x3ed46996	0.41486806
42	0x3eb6a0d1	0.35669568
43	0x3e5cd1ff	0.21564482
44	0x3dd42259	0.10358114
45	0x3f215128	0.6301446
46	0x3e857960	0.26069164
47	0x3e82abde	0.2552175
48	0x3e923091	0.28552678
49	0x3ce3346c	0.027734958
50	0xbe4d6fee	-0.20062229
51	0xbe0bf73b	-0.1366853
52	0xbdd57e6a	-0.10424502
53	0xbe2bf47d	-0.16792484
54	0x3d93c1d2	0.07214703
55	0xbe9b833c	-0.3037356
56	0xbcb01a1b	-0.021496823
57	0xbe402cf3	-0.18767147
58	0xbed1fc7a	-0.41012937
59	0xbda5deec	-0.080991596
60	0xbda5e1eb	-0.08099731
61	0xbe3dde2f	-0.18541788
62	0xbe45e725	-0.19326456
63	0xbde35cca	-0.111016825
64	0xbe9ab572	-0.30216557
65	0xbe2929d8	-0.16519868
66	0xbf08ec45	-0.5348552
67	0xbe5361f6	-0.20642838
68	0x3e1b85fe	0.15187833
69	0x3d159e60	0.03652799
70	0xbe893ae4	-0.26802742
71	0xbe888e61	-0.26671126
72	0xbcc5fdb4	-0.024168827
73	0x3cb2cee1	0.021827163
74	0x3e5dde6f	0.21666883
75	0xbdb7aff1	-0.08969105
76	0x3bfe00c8	0.007751558
77	0xbda64508	-0.081186354
78	0xbdb14297	-0.08655279
79	0x3e03c5e7	0.12868463
80	0x3df00e61	0.117214926
81	0x3bb08234	0.005386615
82	0xbddf158d	-0.10892782
83	0xbcab6573	-0.020922398
84	0xbdace6f1	-0.08442486
85	0x3d05d271	0.032671396
86	0x3dca5495	0.09879414
87	0xbe421987	-0.1895505
88	0xbdee1e9a	-0.116269305
89	0xbdcd7566	-0.100321576
90	0x3e054deb	0.13018005
91	0xbdc1be29	-0.09460098
92	0x3d21194b	0.039330762
93	0x3d973c8f	0.073845975
94	0xbd5a78e3	-0.053337943
95	0x3e2e197f	0.17001913
96	0x3d9b739d	0.07590411
97	0x3e05e0b9	0.13074006
98	0x3e319590	0.1734221
99	0x3e21fbfd	0.15818782
100	0xbe3e908f	-0.18609832
101	0xbe03cd62	-0.12871316
102	0xbd5c397f	-0.05376577
103	0xbe048ab6	-0.12943539
104	0x3dbf9e58	0.093563735
105	0xbf1f62aa	-0.62259924
106	0xbe3ff31e	-0.18745086
107	0xbe1c9345	-0.15290554
108	0xbdc8b56d	-0.09800229
109	0xbdc4b657	-0.09605091
110	0xbdd66f83	-0.10470488
111	0xbe1662b5	-0.14686091
112	0xbe68f99f	-0.22751473
113	0xbe98060e	-0.2969212
114	0xbc3ed53b	-0.011647518
115	0xbe92217f	-0.2854118
116	0xbdc42cad	-0.09578834
117	0xbe01cec3	-0.1267653
118	0x3db6f25b	0.089329444
119	0xbc517ea5	-0.012786542
120	0xbb591481	-0.0033123794
121	0xbe03747c	-0.12837404
122	0xbc53af00	-0.012920141
123	0xbbdcbd74	-0.0067364518
124	0x3dccecdf	0.10006117
125	0xbdc35542	-0.09537746
126	0xbe26d7c0	-0.1629324
127	0x3dc9cef6	0.09853928
128	0x3c59bfd2	0.013290362
129	0xbda3bbf5	-0.07994834
130	0x3c6ce9aa	0.014460007
131	0xbd830c68	-0.06398851
132	0x3b6a82b5	0.0035783474
133	0x3e086378	0.13319194
134	0x3e154966	0.1457878
135	0x3cedd1b7	0.029030664
136	0xbdb228bb	-0.08699175
137	0xbdfd8488	-0.12378794
138	0x3d45b322	0.048266537
139	0x3d8ffdf2	0.07030858
140	0x3d9aca73	0.075581454
141	0xbe33f9bc	-0.17575735
142	0xbc25be2e	-0.010116143
143	0x3dd5772b	0.1042312
144	0x3d7842d1	0.060610596
145	0x3cb8890b	0.022526285
146	0x3cf22ace	0.029561426
147	0xbdfb4d5b	-0.12270614
148	0xbdfad45c	-0.122475356
149	0xbe0400bb	-0.12890904
150	0x3e58a995	0.2115844
151	0xbdff6587	-0.12470537
152	0xbcad40fc	-0.021149151
153	0x3dfb57b4	0.122725874
154	0x3dc9f215	0.098606266
155	0xbdc2a27c	-0.09503648
156	0xbc1ebacc	-0.0096880905
157	0xbdddf8b3	-0.10838451
158	0xbc4ce41c	-0.012505557
159	0xbdaa0db6	-0.083033964
160	0xbde1ba06	-0.11021809
161	0xbd5a9108	-0.05336097
162	0x3cbc2f67	0.022971822
163	0xbe6a8969	-0.2290398
164	0xbea031ec	-0.31288087
165	0x3e35f8e5	0.17770727
166	0xbe02236b	-0.12708823
167	0xbe3a708a	-0.18206993
168	0xbb14eacf	-0.0022722965
169	0xbd9f6329	-0.07782585
170	0x3de59609	0.112102576
171	0xbda4babd	-0.0804343
172	0xbe2620cf	-0.16223453
173	0xbd9a13a0	-0.075232744
174	0xbd932a54	-0.07185808
175	0x3e667a54	0.22507602
176	0x3ead83c2	0.33889586
177	0x3f009408	0.5022588
178	0x3e34572f	0.17611383
179	0x3d06a951	0.032876316
180	0x3e88ca24	0.2671672
181	0x3ccca25a	0.024979759
182	0x3d211c3c	0.039333567
183	0x3d953398	0.07285231
184	0xbe19916a	-0.14996877
185	0x3ea50dc2	0.3223706
186	0xbedfaf79	-0.43688563
187	0xbd3a6bbf	-0.04551291
188	0xbc8a0bda	-0.016851354
189	0xbe800c15	-0.25009218
190	0x3edd0d44	0.43174183
191	0x3dd3ae9a	0.10336037
192	0xbe16c64d	-0.14724083
193	0xbe47cc74	-0.19511586
194	0xbd520c3b	-0.051281195
195	0xbb4fdb8c	-0.0031716553
196	0x3e4b7e46	0.19872388
197	0x3db1dfcd	0.08685265
198	0xbe5fb24f	-0.21845363
199	0xbec09b68	-0.37618566
200	0x3cf32bac	0.02968391
201	0x3e00b252	0.12568024
202	0x3d66ebb1	0.056377117
203	0xbd7857fd	-0.060630787
204	0x3da48963	0.08034017
205	0xbd3955d0	-0.045247853
206	0x3e92e317	0.2868888
207	0x3c5e2402	0.01355839
208	0xbdc982b0	-0.0983938
209	0x3c6e2bed	0.01453684
210	0xbdcbd234	-0.099522024
211	0x3d920a3b	0.071308576
212	0x3eb380d8	0.35059237
213	0x3d4813c5	0.04884698
214	0xbe6191b1	-0.22028233
215	0x3e1527b8	0.14565933
216	0xbe83d8ea	-0.2575143
217	0xbdbe0d4e	-0.092798814
218	0x3e9b8891	0.3037763
219	0xba386a64	-0.00070348964
220	0x3decf9ee	0.11571108
221	0x3e5ee574	0.21767217
222	0xbed9525e	-0.42445654
223	0xbc921125	-0.01783044
224	0xbc9ad3c6	-0.01889981
225	0xbe067dcc	-0.13133925
226	0xbcd0d7e4	-0.02549357
227	0x3d8def61	0.069304235
228	0x3d8bea70	0.06831825
229	0xbe131e33	-0.14366989
230	0xbd4733e5	-0.048633475
231	0xbbf853f5	-0.007578368
232	0x3da8cc6c	0.082421154
233	0xbd6bb24a	-0.057543077
234	0xbe445215	-0.19171937
235	0xbd233180	-0.03984213
236	0xbc5404ea	-0.012940625
237	0x3da15437	0.07877391
238	0xbdd54988	-0.104144156
239	0xbdc7d3dd	-0.097572066
240	0xbbbf6c62	-0.0058417777
241	0x3cd00133	0.025391197
242	0xbbdade8c	-0.0066793617
243	0x3db68126	0.08911352
244	0xbcde16f0	-0.027110547
245	0x3e69bd5d	0.22826143
246	0x3d3d280f	0.04618078
247	0xbd8e7c69	-0.06957323
248	0x3e53afbc	0.20672506
249	0x3da921e1	0.08258415
250	0xbda9f51d	-0.08298705
251	0x3d964cca	0.07338865
252	0x3d11c1c2	0.035585172
253	0xbd147c33	-0.036251258
254	0x3b417a9d	0.0029522546
255	0x3cdd4f17	0.027015252

conv2.bias f4 [16]
0	0x3e695c4b	0.22789113
1	0xbde31474	-0.110878855
2	0xbe39a3ff	-0.18128966
3	0x3f79a9e0	0.97524834
4	0xbed081f9	-0.4072416
5	0x3dd70663	0.10499265
6	0xbd2325ad	-0.039830852
7	0x3f738d6e	0.9513768
8	0xbece84e4	-0.40335763
9	0xbe778877	-0.24173151
10	0xbecb5969	-0.39716652
11	0x3e246fd3	0.16058283
12	0x3e8edbf4	0.27902186
13	0x3f058449	0.52154976
14	0xbda6d83b	-0.081467114
15	0xbed06c92	-0.40707833

fc1.weight f4 [120, 400]
0	0x3e01fd52	0.1269429
1	0x3d8c0ef8	0.068387926
2	0xbd35fad7	-0.044428673
3	0x3ec14442	0.3774739
4	0xbce51a14	-0.027966537
5	0x3e949b55	0.2902476
6	0xbeb9170e	-0.36150402
7	0xbeb8c403	-0.36087045
8	0xbd993802	-0.07481386
9	0xbdea7dcb	-0.11449774
10	0xbc92244c	-0.017839573
11	0xbe74e4b0	-0.23915362
12	0xbeb23168	-0.3480332
13	0xbe699acc	-0.22812957
14	0xbe536bf2	-0.20646647
15	0x3c535b86	0.012900239
16	0x3d3d892b	0.04627339
17	0xbe23177b	-0.15926926
18	0x3d96e435	0.07367746
19	0xbda0de4c	-0.078549
20	0xbe21a4df	-0.1578555
21	0xbe94507d	-0.28967658
22	0x3e4b8e04	0.19878393
23	0xbe0bdf89	-0.1365949
24	0x3e825eae	0.2546286
25	0x3de63c1f	0.11241936
26	0xbdb2c847	-0.08729606
27	0x3dd9af3b	0.10629126
28	0xbe8941de	-0.26808065
29	0x3d89376c	0.06700024
30	0xbda22496	-0.079171345
31	0x3de1e746	0.1103044
32	0xbe8c8f5d	-0.27453128
33	0xbdca3002	-0.09872438
34	0xbeaf40e9	-0.3422921
35	0x3dd6e084	0.10492042
36	0x3e2182b7	0.1577252
37	0x3da6e9a6	0.08150034
38	0x3e1a24ca	0.15053096
39	0xbe4f32a7	-0.20234166
40	0x3d7335a3	0.059377324
41	0xbd80d68f	-0.06290924
42	0xbeee58a3	-0.46552
43	0xbdae3352	-0.08505882
44	0xbe16dc24	-0.14732414
45	0x3e7ff102	0.24994281
46	0xbd038928	-0.032113224
47	0x3e1d8d1c	0.1538586
48	0xbeb19bdd	-0.34689227
49	0x3e8d1f32	0.27562863
50	0x3d912164	0.07086447
51	0x3d742567	0.059605982
52	0x3e3e60b7	0.18591581
53	0xbdeb2634	-0.11481896
54	0xbe1fbb41	-0.15598775
55	0xbcaf7b23	-0.02142102
56	0x3cf803f5	0.030275324
57	0x3e088b33	0.1333435
58	0x3bcd29aa	0.0062610703
59	0xbdd53e58	-0.10412282
60	0xbd9abbe5	-0.07555369
61	0xbe81e11c	-0.25367057
62	0xbc2daeee	-0.0106007885
63	0xbe1985f6	-0.14992508
64	0xbe62ea3b	-0.22159664
65	0xbe1c48d7	-0.15262161
66	0xbe65e51c	-0.2245068
67	0xbda24144	-0.07922605
68	0xbe342268	-0.1759125
69	0xbe2ace73	-0.16680317
70	0xbd9e6c82	-0.0773554
71	0xbc8694bf	-0.01642835
72	0xbe10d5df	-0.14144085
73	0xbdb7de36	-0.0897793
74	0xbe0916d5	-0.13387616
75	0x3e6957eb	0.22787444
76	0x3e15722e	0.14594337
77	0xbc9d1f71	-0.019180031
78	0x3e76dadf	0.2410693
79	0x3e105b6b	0.14097373
80	0xbd4e41a0	-0.050355554
81	0x3e6e065c	0.23244613
82	0xbd04e688	-0.032446414
83	0x3da509eb	0.08058532
84	0x3d39d34d	0.045367528
85	0xbe3c1491	-0.1836722
86	0x3db5a077	0.08868497
87	0xbe923914	-0.28559172
88	0xbde2a40a	-0.11066444
89	0xbd288233	-0.041139793
90	0xbe70383a	-0.23458949
91	0xbdbd78fa	-0.0925159
92	0x3e0dbf41	0.13842489
93	0x3ebf1bfb	0.37326035
94	0xbd80da57	-0.06291645
95	0xbd802eb3	-0.06258907
96	0xbc7cae19	-0.0154223675
97	0x3dcff923	0.10154941
98	0xbccd5916	-0.025066894
99	0xbcca2aca	-0.024678607
100	0x3cd31cd8	0.02577059
101	0xbd5f31c6	-0.054490827
102	0xbb01956a	-0.0019772896
103	0xbde14269	-0.10998995
104	0x3deb3344	0.114843875
105	0x3d908fe2	0.070586935
106	0xbe028a7b	-0.12748139
107	0xbe4ad40a	-0.19807449
108	0x3e0154af	0.1262996
109	0xbe016e58	-0.12639749
110	0x3e3f65f5	0.18691237
111	0x3bb90405	0.005646231
112	0x3ca70ca3	0.020391768
113	0xbb80d911	-0.0039321263
114	0x3d3cd96e	0.046105795
115	0x3c29d1ce	0.010364963
116	0xbda6cef0	-0.08144939
117	0xbe26a091	-0.16272189
118	0xbe188352	-0.14893845
119	0xbe90f188	-0.28309274
120	0xbd9db1c3	-0.07699921
121	0x3e110188	0.1416074
122	0xbccac466	-0.024751853
123	0x3ea30ca2	0.31845576
124	0x3c282118	0.010261796
125	0xbe17a6f1	-0.14809777
126	0x3dc910a9	0.09817631
127	0xbdac1d25	-0.084039964
128	0x3b9251c5	0.004465314
129	0x3c0e3075	0.008678545
130	0xbddd3994	-0.10801998
131	0x3e239b57	0.15977226
132	0xbd9efcc7	-0.07763057
133	0x3e99ba85	0.30025116
134	0x3e11f75d	0.14254518
135	0xbd6cb772	-0.057792135
136	0xbd0ff57c	-0.03514622
137	0x3d1df1aa	0.038560547
138	0x3e8c99b1	0.27461007
139	0xbe338fb1	-0.17535283
140	0x3e794505	0.24342735
141	0xbdfaa60b	-0.122387014
142	0xbe1b595c	-0.15170807
143	0xbe0f24cc	-0.1397888
144	0xbc679f72	-0.014137136
145	0xbe0ac1bb	-0.13550465
146	0xbdd270aa	-0.10275395
147	0x3d5377d0	0.051627934
148	0x3d86c043	0.0657964
149	0x3eaa536b	0.33266768
150	0xbdbd803b	-0.09252974
151	0xbe50b2dd	-0.20380731
152	0x3d98e966	0.07466392
153	0xbec830a2	-0.39099604
154	0xbd804d44	-0.06264737
155	0xbe5baf87	-0.21453677
156	0xbd8a8700	-0.067640305
157	0x3db36041	0.08758593
158	0x3da6e137	0.08148425
159	0xbe4b3bba	-0.19847003
160	0xbc37e949	-0.011225053
161	0xbd6838a4	-0.05669464
162	0x3e153574	0.14571172
163	0xbce30569	-0.02771254
164	0xbcbb24ac	-0.022844635
165	0x3e719db4	0.23595315
166	0x3e9f146b	0.31070265
167	0x3dda9452	0.10672821
168	0x3e9abdb5	0.3022286
169	0x3d00f86f	0.031486925
170	0x3d6df8c5	0.058098573
171	0x3e0d7f50	0.13818097
172	0xbd728d46	-0.05921676
173	0xbd97b3c0	-0.074073315
174	0x3d1f9f30	0.038970172
175	0x3e087ba1	0.1332841
176	0x3e173ffc	0.14770502
177	0x3ec694ec	0.38785493
178	0x3e2db5bc	0.16963857
179	0x3d862fdf	0.065520994
180	0x3d563e91	0.05230576
181	0xbccfaa78	-0.02534984
182	0x3dfad8a5	0.12248353
183	0xbd5a098d	-0.053231765
184	0xbd84a345	-0.06476454
185	0x3d06ec6e	0.03294032
186	0x3bf7e001	0.007564545
187	0x3d63550b	0.055501025
188	0xbe2fb4a0	-0.17158747
189	0xbe827089	-0.25476483
190	0xbd891a74	-0.06694499
191	0x3e597345	0.21235378
192	0x3da16efd	0.078824975
193	0xbc46abe9	-0.0121259475
194	0xbd37431b	-0.04474173
195	0x3e8148fc	0.25250995
196	0x3de65cfa	0.112482026
197	0x3d09342d	0.033497024
198	0xbc6cb08a	-0.014446387
199	0x3ea5d852	0.32391602
200	0x3e9a612c	0.3015226
201	0x3aaf23cd	0.001336211
202	0x3cc3a1ec	0.023880921
203	0x3e12a683	0.14321332
204	0xbb8bcfb0	-0.0042667016
205	0x3c496b9d	0.012293723
206	0x3db84db2	0.08999194
207	0x3dd8055d	0.10547898
208	0x3ea05ff2	0.313232
209	0x3f0278ec	0.5096576
210	0x3db2bb32	0.08727111
211	0xbcc4e15b	-0.02403324
212	0x3bde2bd0	0.006780125
213	0xbded7fe2	-0.11596657
214	0x3d3eacb9	0.04655144
215	0x3a541bef	0.00080913206
216	0x3dc02178	0.09381384
217	0x3deedd56	0.1166331
218	0xbd916588	-0.07099444
219	0x3e8a2fc9	0.26989582
220	0xbe05074f	-0.1299107
221	0xbdb8215d	-0.089907385
222	0xbe2ee8b9	-0.17080964
223	0xbd7d3122	-0.061814435
224	0xbe5381f4	-0.20655042
225	0xbe9b7a1e	-0.30366606
226	0x3e8c1023	0.2735606
227	0xbd00848d	-0.03137641
228	0x3e1264d9	0.14296283
229	0xbe459031	-0.19293286
230	0xbbeae8b5	-0.007168854
231	0x3ea3455f	0.31888863
232	0x3e103f7e	0.1408672
233	0x3d50681e	0.050880544
234	0xbe4c1243	-0.19928841
235	0xbd583424	-0.0527841
236	0x3e051ed6	0.13000044
237	0x3e991fb2	0.29906994
238	0x3e54c85d	0.20779558
239	0xbe241bec	-0.16026276
240	0x3e919112	0.28430992
241	0x3e2b8893	0.16751318
242	0x3d54bc52	0.05193741
243	0xbe96985f	-0.29413125
244	0x3e37ecfc	0.17961496
245	0x3e695e55	0.22789891
246	0x3db690fc	0.08914372
247	0x3d3dd898	0.046349138
248	0xbe89978c	-0.26873434
249	0xbe8b6234	-0.2722336
250	0x3dd3022b	0.10303148
251	0xbdd81189	-0.105502196
252	0x3be3c8cb	0.0069514266
253	0xbd063fed	-0.032775808
254	0xbdb4d69b	-0.08829995
255	0xbe0b6247	-0.13611709

fc1.bias f4 [120]
0	0xbdbd05ee	-0.092296466
1	0x3ea9043c	0.33011043
2	0xbe94dec5	-0.2907621
3	0x3eb45694	0.35222304
4	0x3f404685	0.75107604
5	0x3e78c9de	0.24295756
6	0x3ede02df	0.43361565
7	0xbe94211a	-0.28931504
8	0x3e85cc41	0.26132396
9	0x3c33521e	0.010944871
10	0xbe0340fe	-0.12817761
11	0x3e5414d4	0.2071107
12	0x3e843094	0.25818312
13	0xbdeb5b07	-0.114919715
14	0xbd28cfa5	-0.04121365
15	0xbdea381f	-0.114364855
16	0xbd868899	-0.06569023
17	0x3c332366	0.010933733
18	0xbcf25f0b	-0.029586336
19	0x3cae0a07	0.021245016
20	0xbe71e3f9	-0.23622121
21	0xbe423365	-0.18964918
22	0x3dfba2a9	0.12286884
23	0xbe5a8547	-0.21339904
24	0xbe369734	-0.17831117
25	0xbe54fb4b	-0.20798986
26	0xbf1dea7f	-0.6168594
27	0xbbf3bdac	-0.007438382
28	0xbcf31fdc	-0.029678278
29	0x3be4e7a8	0.0069856234
30	0x3cc68768	0.024234489
31	0x3eb7e7f0	0.35919142
32	0xbe914854	-0.28375494
33	0x3ebb3ab1	0.36568215
34	0xbef7cd42	-0.48398787
35	0x3f176664	0.5914061
36	0xbcecc289	-0.028901355
37	0xbd0bcde3	-0.034131896
38	0x3e826472	0.2546726
39	0x3d5206bd	0.051275957
40	0x3ea28ea1	0.31749442
41	0xbd78bdd0	-0.060727894
42	0x3cd76455	0.02629296
43	0xbeddaa42	-0.4329396
44	0xbe6a27ad	-0.22866698
45	0x3cffb2b7	0.031213148
46	0x3eebc698	0.46049953
47	0xbd3d6653	-0.046240162
48	0x3e6bae59	0.23015727
49	0xbef09c3f	-0.46994206
50	0x3c5104ef	0.012757524
51	0xbd42b62e	-0.04753702
52	0xbdf4ae2a	-0.11947282
53	0x3d0c97ec	0.03432457
54	0x3ef1d7af	0.47234866
55	0x3db9a442	0.09064533
56	0xbe3f2ea2	-0.18670133
57	0x3f0a37d8	0.5399146
58	0x3d9618a0	0.073289156
59	0x3e52a5b6	0.20571026
60	0x3e3b5c19	0.18296851
61	0xbe2d85d6	-0.16945586
62	0x3f30fdd0	0.6913729
63	0x3c64a9f5	0.013956537
64	0x3d80744a	0.062721804
65	0xbcacb6c7	-0.021083249
66	0x3c0f8edd	0.008762089
67	0x3d017b40	0.03161168
68	0x3e6bf02c	0.23040837
69	0x3c076d88	0.00826586
70	0xbcbade61	-0.022811117
71	0x3ea158ec	0.31513155
72	0xbe417a06	-0.18894204
73	0xbd0d7c4b	-0.034542363
74	0xbd6a4b9a	-0.057201006
75	0x3f17d2ed	0.5930622
76	0xb9ce7c19	-0.00039383842
77	0x3eb4e4b1	0.35330728
78	0xbd044171	-0.032288972
79	0x3f2ee224	0.68313813
80	0x3f298451	0.66217524
81	0xbd2d7334	-0.042346194
82	0xbd8a7ac4	-0.06761697
83	0xbcefcd51	-0.029272707
84	0xbd8f7c6e	-0.07006155
85	0xbd3c6815	-0.045997698
86	0xbed4943b	-0.4151934
87	0x3e9b2359	0.30300406
88	0x3d5ff530	0.05467719
89	0xbd291add	-0.041285384
90	0xbed05839	-0.4069231
91	0x3ef1353b	0.47110924
92	0xbe3562f6	-0.17713532
93	0x3bd297e1	0.006426797
94	0x3e77b31c	0.24189419
95	0xbef12d1e	-0.47104734
96	0xbd3c5e93	-0.04598863
97	0xbc355f5e	-0.011070101
98	0xbeba61bb	-0.36402687
99	0x3ed3892f	0.413156
100	0xbf171774	-0.5902016
101	0xbd00b47a	-0.031422116
102	0xbbab7eb7	-0.0052336114
103	0xbcb3d6a7	-0.02195294
104	0x3e9d3f00	0.30712128
105	0x3e431158	0.19049585
106	0x3da80169	0.08203394
107	0xbd8bd4b1	-0.06827677
108	0x3ec8474a	0.3911689
109	0x3e578c2f	0.2104957
110	0x3b7c90e5	0.0038538512
111	0xbe482c8f	-0.19548248
112	0xbe0df75e	-0.13863894
113	0x3eaec4d6	0.3413455
114	0x3cd8c01d	0.026458794
115	0x3de4c330	0.111700416
116	0xbc7217aa	-0.01477615
117	0x3e9d3b70	0.3070941
118	0xbd6251f4	-0.055253938
119	0x3ed94ac3	0.4243985

fc2.weight f4 [84, 120]
0	0x3e495ce5	0.19664343
1	0xbd6c5604	-0.05769922
2	0xbd6b31ab	-0.057420414
3	0x3e47a9f9	0.19498433
4	0xbe24d81b	-0.16098063
5	0x3daec1db	0.08533069
6	0x3ec5890f	0.3858113
7	0xbd6b619a	-0.057466127
8	0x3de7fe64	0.11327818
9	0xbd68db59	-0.05684981
10	0x3d883db7	0.06652396
11	0x3d9cce69	0.07656557
12	0x3d7b98bc	0.061424956
13	0xbe1119a0	-0.14169931
14	0x3e03ec64	0.12883145
15	0xbecab0fa	-0.39588147
16	0x3d9f453b	0.077768765
17	0xbce2b0a5	-0.027672121
18	0xbcbb3702	-0.022853378
19	0xbedea30e	-0.43483776
20	0x3e0def6d	0.13860865
21	0x3e50c4a2	0.2038751
22	0x3e918c17	0.28427193
23	0xbcb9c466	-0.022676658
24	0xbed0a888	-0.4075358
25	0x3e370c08	0.17875683
26	0xbe730d4d	-0.23735543
27	0x3d5c5b76	0.05379816
28	0xbd22090e	-0.039559416
29	0x3df7c035	0.120972075
30	0x3dc9a9ba	0.09846826
31	0x3e2f226e	0.17102978
32	0x3d0bc79c	0.03412591
33	0xbd3b1846	-0.045677446
34	0x3e0cfe88	0.13768971
35	0xbd1659b0	-0.036706626
36	0xbd9a0caa	-0.07521947
37	0x3d546519	0.051854227
38	0xbd76c277	-0.06024405
39	0x3e27671a	0.16347924
40	0x3e1bac87	0.15202533
41	0xbd952de0	-0.072841406
42	0xbe40da59	-0.18833293
43	0x3c84ab94	0.016195096
44	0xbe59106b	-0.21197669
45	0x3d8ae296	0.06781499
46	0x3e2b2d85	0.16716583
47	0xbe0fac3c	-0.14030546
48	0x3d7fc64d	0.062444974
49	0x3e44d7c7	0.19222938
50	0x3d711835	0.058860976
51	0xbd097cfd	-0.033566464
52	0x3dcffdee	0.10155855
53	0xbe098e9e	-0.1343331
54	0xbd330340	-0.04370427
55	0xbd827129	-0.0636924
56	0x3dde6c1a	0.108604625
57	0xbe598c77	-0.2124499
58	0x3c859549	0.016306536
59	0xbef2c85e	-0.47418493
60	0x3d17a628	0.037023693
61	0xbdfe5619	-0.124187656
62	0xbe33e83e	-0.17569062
63	0x3cfbd50e	0.03074124
64	0x3d3532ef	0.044238027
65	0xbcd3d57e	-0.025858637
66	0xbd9d5a6e	-0.07683264
67	0xbea370c4	-0.3192197
68	0x3e8fbf3d	0.2807559
69	0xbd0f7d79	-0.03503177
70	0xbdadcfa8	-0.08486873
71	0x3e1a309e	0.15057608
72	0x3d8c02a1	0.06836439
73	0xbd17d1ee	-0.03706544
74	0x3af088ce	0.0018351318
75	0x3df19721	0.11796404
76	0x3c6542ea	0.013993004
77	0x3eba9a83	0.36446008
78	0x3a84449c	0.0010091248
79	0xbc9a139e	-0.018808182
80	0x3d37b351	0.044848744
81	0xbda88891	-0.08229173
82	0xbe10b74b	-0.1413242
83	0xbd3b1118	-0.0456706
84	0x3c0aa5c7	0.008462376
85	0xbcc5934e	-0.024118092
86	0x3e2e0c78	0.16996944
87	0xbebd8368	-0.37014318
88	0x3e680251	0.22657134
89	0x3e4c6d7d	0.19963641
90	0x3e82e8d9	0.25568274
91	0x3d86c140	0.06579828
92	0xbe8983ae	-0.26858276
93	0xbd346e0e	-0.04405027
94	0xbeedda97	-0.46455833
95	0x3d94ca2f	0.07265126
96	0x3d49142c	0.049091503
97	0x3c5b2c94	0.0133773275
98	0x3d3c42f3	0.045962285
99	0xbe2bfc6f	-0.16795515
100	0xbc4e24f2	-0.012582051
101	0x3e009196	0.12555537
102	0x3d7146f3	0.058905553
103	0x3d6c7754	0.057730988
104	0xbda5e3ef	-0.081001155
105	0x3d4117bf	0.047141787
106	0xbe4c5e6f	-0.19957899
107	0xbc41abbb	-0.011820729
108	0x3dc1e2b1	0.09467066
109	0xbdd441dd	-0.10364125
110	0x3e1600f1	0.14648797
111	0x3e88c5b9	0.2671335
112	0x3dcaf12e	0.099092826
113	0xbed10a0d	-0.4082798
114	0xbd6ea217	-0.05826005
115	0x3e4a5e36	0.19762501
116	0x3d4cf6ea	0.050040163
117	0x3d7ff952	0.06249363
118	0x3d627f2c	0.05529706
119	0x3e876158	0.26441455
120	0xbb978a17	-0.004624616
121	0x3e8934d7	0.26798126
122	0x3e964061	0.29345992
123	0x3e578545	0.21046932
124	0x3ec3c1e2	0.38233858
125	0xbe14c757	-0.14529167
126	0x3dbaf1ea	0.09128173
127	0xbc54a993	-0.012979883
128	0xbd8f6ead	-0.070035316
129	0xbbd0fb15	-0.0063775876
130	0x3d4e2730	0.05033034
131	0x3e1bb4ef	0.1520574
132	0x3e2a50d8	0.16632402
133	0xbc9680e0	-0.018372
134	0x3e1674b5	0.14692958
135	0xbe29979e	-0.16561744
136	0xbcf1a354	-0.029496826
137	0x3bdf8f31	0.0068224897
138	0x3d2722e1	0.040804747
139	0xbe32b0e8	-0.17450297
140	0x3bd24ad5	0.006417612
141	0xbe58c0d3	-0.21167307
142	0x3da7abdf	0.08187079
143	0xbdf8d8da	-0.12150736
144	0xbe3bd794	-0.18343955
145	0xbec64502	-0.38724524
146	0xbe82445d	-0.25442782
147	0x3c5c52c6	0.013447469
148	0x3d876ad8	0.06612176
149	0xbe34757f	-0.17622946
150	0x3ea58e55	0.32335153
151	0x3e90caa0	0.2827959
152	0xbe0ac531	-0.13551785
153	0x3c487a00	0.012236118
154	0xbe0d1dbe	-0.13780877
155	0xbdd6b04f	-0.10482847
156	0x3c79a03e	0.015235959
157	0xbc5047be	-0.012712417
158	0x3e775b57	0.24155937
159	0x3d394273	0.045229387
160	0x3e47fcbe	0.19530007
161	0xbd82da7f	-0.06389331
162	0x3e3c1901	0.18368913
163	0xbe9c2116	-0.30493993
164	0xbd89a393	-0.067206524
165	0x3da2e779	0.07954306
166	0x3e2af3cf	0.16694568
167	0x3bfeb6b5	0.007773245
168	0x3e85e4e2	0.26151186
169	0x3c046e4d	0.008082938
170	0x3d29f90f	0.041497286
171	0x3e0e4184	0.1389218
172	0x3dc744a4	0.09729889
173	0x3e4412c8	0.1914779
174	0xbddc46a0	-0.10755658
175	0xbca0a7e4	-0.019611306
176	0x3c24f6fb	0.01006865
177	0x3d64a2e5	0.05581941
178	0xbe9c2bf4	-0.30502284
179	0x3e85459a	0.26029664
180	0xbcde508c	-0.027138017
181	0xbd8da043	-0.06915333
182	0x3e45b1b6	0.19306073
183	0xbd5a366c	-0.053274557
184	0x3dfd6cba	0.123742536
185	0xbd3d3261	-0.046190623
186	0x3dccdbe6	0.1000288
187	0x3d7214c1	0.059101824
188	0x3e3fd308	0.18732846
189	0xbd57b999	-0.052667234
190	0xbd2e50be	-0.04255747
191	0x3d9fbc1f	0.07799553
192	0xbe58e449	-0.21180834
193	0xbc4b6238	-0.012413554
194	0xbd01e51e	-0.031712644
195	0x3db0238e	0.086005315
196	0x3ce480a9	0.027893381
197	0xbe6fffef	-0.23437475
198	0xbd37ccdf	-0.044873115
199	0x3e23e145	0.16003902
200	0xbe64a6b8	-0.22329223
201	0x3ea2ccd1	0.31796888
202	0x3d8c1272	0.06839456
203	0xbd5a8024	-0.05334486
204	0xbe01590a	-0.12631622
205	0x3dd1f077	0.10250943
206	0xbea2f1b0	-0.31825018
207	0x3e9ddf2a	0.30834323
208	0xbe0a3060	-0.13495016
209	0x3e8aaad6	0.27083462
210	0xbe21a59f	-0.15785836
211	0x3e8fe24a	0.28102332
212	0xbd9a638a	-0.07538517
213	0xbd6aa838	-0.057289332
214	0x3cbc61ab	0.02299579
215	0xbd0b33b1	-0.033984844
216	0x3cbcf9e5	0.023068378
217	0x3da1e73d	0.07905433
218	0x3d921d69	0.07134516
219	0x3c329ad0	0.010901168
220	0xbe256cf3	-0.16154842
221	0xbcf9ed1b	-0.030508569
222	0xbd847fd3	-0.06469693
223	0x3cea29fe	0.028584477
224	0xbe76740c	-0.24067706
225	0x3db33290	0.087498784
226	0x3e1e964b	0.1548702
227	0x3d69d017	0.057083216
228	0x3e0046ea	0.12527052
229	0x3e14ec67	0.14543305
230	0x3d7a344b	0.061085027
231	0xbdabffd9	-0.083984084
232	0xbe6db80c	-0.2321474
233	0xbe1d77bb	-0.15377705
234	0xbdb8fc56	-0.09032504
235	0x3dcbc27b	0.099492036
236	0xbe26fcb9	-0.16307344
237	0x3e16bc35	0.14720233
238	0xbc856fce	-0.016288664
239	0x3ed792cb	0.42104182
240	0x3d1e7b52	0.038691826
241	0xbe87bd10	-0.2651143
242	0x3d8bf1f4	0.06833258
243	0x3d6283f9	0.05530164
244	0xbe444c35	-0.19169696
245	0xbce5c6e4	-0.02804894
246	0xbc1099a9	-0.008825698
247	0x3e2c6351	0.16834761
248	0x3d5a30ee	0.05326932
249	0x3d8b2b5c	0.067953795
250	0xbf031fec	-0.51220584
251	0xbd4e0a01	-0.05030251
252	0x3dbf3577	0.093363695
253	0xbe2c168d	-0.16805477
254	0x3e8a6f08	0.27037835
255	0xbdd36d11	-0.10323537

fc2.bias f4 [84]
0	0x3e283b54	0.16428882
1	0x3efa7435	0.48916784
2	0xbeadf1c2	-0.3397351
3	0xbd9c55fa	-0.07633586
4	0xbdce5438	-0.10074657
5	0xbdd2c56e	-0.10291563
6	0xbd6e91d1	-0.05824453
7	0xbd209edd	-0.039214004
8	0xbc80d6ed	-0.015727485
9	0x3e46832f	0.1938598
10	0xbe9dbf3f	-0.30809972
11	0xbe9ad5a3	-0.30241117
12	0xbe5de9e0	-0.21671247
13	0xbe019066	-0.1265274
14	0x3f10da39	0.5658298
15	0xbed234e3	-0.41055974
16	0xbe82e85e	-0.25567907
17	0xbd4412b5	-0.047869403
18	0xbcab23f6	-0.020891171
19	0x3ea7b48f	0.32754943
20	0xbcad01dd	-0.021119053
21	0x3f06db27	0.5267815
22	0x3e025d06	0.12730798
23	0x3ebb9f7a	0.36645108
24	0x3e671676	0.22567162
25	0x3e57ee51	0.21087004
26	0xbe737e3c	-0.23778623
27	0x3e887b50	0.2665658
28	0x3d9af50f	0.075662725
29	0x3e9a9b65	0.30196682
30	0x3e727e38	0.23680961
31	0x3e9b5ffb	0.30346665
32	0x3ce6caf2	0.028172944
33	0xbdfd2f5d	-0.123625495
34	0xbd420262	-0.047365554
35	0xbcd5cd69	-0.026098924
36	0x3ed44c5d	0.4146451
37	0x3ef430a3	0.47693357
38	0xbcffba9b	-0.03121691
39	0xbd81c40a	-0.063362196
40	0xbf0e70e5	-0.55641013
41	0x3dd43df0	0.10363376
42	0x3e195e4f	0.14977382
43	0x3c5baab7	0.013407401
44	0x3f0abc27	0.5419335
45	0xbe7126bf	-0.23549937
46	0x3f033c15	0.5126355
47	0xbb9bd74d	-0.0047558905
48	0x3e852072	0.26001316
49	0xbead273b	-0.33818993
50	0x3db20b4b	0.0869356
51	0x3e053bff	0.13011168
52	0x3eb3bae2	0.35103518
53	0x3e68f417	0.22749363
54	0x3d7e6743	0.062110197
55	0x3e95f44f	0.29287955
56	0x3deb032b	0.114752136
57	0x3afd986d	0.0019347795
58	0x3ea50125	0.32227436
59	0x3c9a387f	0.018825768
60	0x3e17fff8	0.14843738
61	0xbed70a7b	-0.42000183
62	0x3a6bd84b	0.0008996769
63	0x3d19dcdb	0.03756414
64	0x3e961b5b	0.29317746
65	0xbe8345d1	-0.25639203
66	0xbe108b85	-0.14115722
67	0x3ee99df6	0.45628327
68	0x3e745d1b	0.23863642
69	0xbe34c15f	-0.1765189
70	0x3eb52672	0.35380894
71	0x3de2aed4	0.11068502
72	0xbe159300	-0.14606857
73	0xbeb3b9ba	-0.35102636
74	0xbe840cac	-0.25790918
75	0x3d0b657e	0.034032337
76	0x3d90834e	0.070562944
77	0xbec777e6	-0.38958663
78	0xbe73a879	-0.23794736
79	0x3e20ac1a	0.15690652
80	0xbe79367a	-0.24337187
81	0xbe3ce79f	-0.18447731
82	0x3b707392	0.003668998
83	0x3ef658d4	0.48114645

fc3.weight f4 [10, 84]
0	0x3e58946d	0.2115037
1	0x3daf556c	0.08561215
2	0x3d549407	0.051898982
3	0x3e0123a9	0.1261126
4	0xbd2bf157	-0.041978206
5	0x3f1119a0	0.56679726
6	0x3e889fed	0.26684514
7	0x3e827f97	0.25487968
8	0xbeab2edc	-0.33434188
9	0xbd18cb30	-0.03730315
10	0x3dc887da	0.09791537
11	0x3e326fab	0.1742541
12	0x3f88625a	1.0655015
13	0x3ec37f24	0.38182938
14	0xbed5df6d	-0.41772023
15	0x3e57a707	0.2105981
16	0xbd8a1fe5	-0.06744365
17	0xbe196a7f	-0.14982031
18	0x3e85a740	0.26104164
19	0xbe353b7f	-0.17698477
20	0x3dc1c0f8	0.09460634
21	0xbdf184b3	-0.117928885
22	0x3eb59d44	0.35471547
23	0x3e1250d0	0.1428864
24	0x3df06d26	0.117395684
25	0xbf410b3e	-0.7540778
26	0xbdc5cc17	-0.09658068
27	0xbd8a38ae	-0.06749092
28	0x3d5c961b	0.05385409
29	0xbf07213e	-0.527851
30	0xbf276764	-0.65392137
31	0x3e0df2dd	0.13862176
32	0x3e2cefbd	0.16888328
33	0xbc6afbb1	-0.0143422345
34	0xbdd6cb1c	-0.10487959
35	0xbe47dfa9	-0.19518913
36	0xbe108344	-0.14112574
37	0x3e26211b	0.16223566
38	0xbc80d16e	-0.015724864
39	0xbf4d088a	-0.80091155
40	0xbe374e90	-0.17901063
41	0xbec32230	-0.3811202
42	0xbcd23ec7	-0.0256647
43	0xbd4ae0b1	-0.04953069
44	0xbe7ec776	-0.24880776
45	0x3d29809f	0.04138243
46	0xbf5026a5	-0.81308967
47	0x3e1eb102	0.1549721
48	0x3d6dd06f	0.058060106
49	0xbe502890	-0.20327973
50	0x3e98f4ad	0.29874173
51	0xbd840bbe	-0.06447552
52	0xbf0ce149	-0.5503126
53	0x3e877a46	0.26460475
54	0x3e672bca	0.22575298
55	0xbf0784b4	-0.52936864
56	0x3e82b8eb	0.25531706
57	0xbeeb2849	-0.45929173
58	0x3d1c6cb0	0.03818959
59	0xbe638d41	-0.22221853
60	0xbe78eac4	-0.24308306
61	0x3dd7118c	0.10501394
62	0x3dbd1f8f	0.09234535
63	0x3e90aa98	0.28255153
64	0x3c3de88a	0.011591086
65	0xbd413ba2	-0.04717601
66	0x3ec0f3c9	0.37685993
67	0x3d808ef5	0.06277267
68	0xbec85e3b	-0.39134392
69	0xbdb0139b	-0.085974894
70	0xbe39258d	-0.1808073
71	0x3de323ce	0.110908136
72	0x3ea38bb2	0.31942517
73	0xbe82efee	-0.25573677
74	0xbe3ba530	-0.18324733
75	0xbe67b549	-0.22627749
76	0x3e122607	0.14272319
77	0xbe96725d	-0.29384127
78	0xbc282fc6	-0.010265296
79	0xbd9352c5	-0.071935214
80	0xbf083d72	-0.5321876
81	0xbf4c3904	-0.797745
82	0xbeb984d9	-0.36234167
83	0x3e86aff2	0.2630611
84	0xbf383fe3	-0.71972483
85	0x3d1311a1	0.035905484
86	0x3dee357d	0.11631296
87	0xbcb9c964	-0.022679038
88	0x3e1c16e6	0.1524311
89	0x3f55f027	0.8356957
90	0xbe812d87	-0.25230047
91	0x3e8cbe29	0.2748883
92	0xbf0b1c88	-0.5434041
93	0x3a09b8bf	0.00052536646
94	0x3e1f48f7	0.15555178
95	0x3e0f6669	0.1400391
96	0x3ece1d5f	0.40256783
97	0x3e243411	0.16035487
98	0x3cf05172	0.029335711
99	0x3ed40b6a	0.41414958
100	0x3e0f22db	0.1397814
101	0x3ed75e4d	0.42064133
102	0x3d0816e7	0.033224966
103	0xbed2d189	-0.41175488
104	0xbe03e893	-0.12881689
105	0xbf55c68a	-0.8350607
106	0xbf45eabb	-0.77311295
107	0xbf3328f5	-0.6998437
108	0xbf02a6c6	-0.51035726
109	0x3e320cda	0.17387715
110	0x3e0e4366	0.13892898
111	0x3eee928b	0.46596178
112	0xbd9a2f64	-0.0752857
113	0xbef77501	-0.48331454
114	0xbe96480d	-0.29351845
115	0x3e01cd10	0.12675881
116	0x3e9a4f08	0.3013842
117	0x3e1e6b2b	0.15470569
118	0xbdc58d43	-0.09646084
119	0x3dec4058	0.1153571
120	0xbcd0c3e0	-0.025484025
121	0xbebda717	-0.37041542
122	0x3e7f14f9	0.24910344
123	0xbe8721ae	-0.26392883
124	0x3ec9f28e	0.39442867
125	0xbd8116a6	-0.06303148
126	0x3e2a1999	0.16611327
127	0xbe0d9c3f	-0.13829134
128	0xbf04fe31	-0.51950365
129	0xbd896747	-0.06709152
130	0x3e880dbc	0.26572978
131	0x3d5a9e20	0.053373456
132	0x3e0dec33	0.13859634
133	0x3e473108	0.19452298
134	0xbd89ba5f	-0.067250006
135	0x3e80b9b3	0.25141677
136	0xbf83f55a	-1.030925
137	0xbea88ea6	-0.32921332
138	0xbf0e3c95	-0.5556119
139	0xbe7c5ce6	-0.24644813
140	0x3e051154	0.12994891
141	0xbdc69162	-0.09695698
142	0xbdaa01e2	-0.0830114
143	0xbf0bf8c7	-0.5467648
144	0x3cd30555	0.025759378
145	0x3e0deb83	0.13859372
146	0xbe5a4406	-0.21315011
147	0xbf80412f	-1.0019892
148	0xbd961e5d	-0.0733001
149	0x3ea880e3	0.32910833
150	0xbdeb7a50	-0.11497939
151	0xbf18b9c9	-0.59658486
152	0xbecb7a12	-0.3974157
153	0x3e0947dd	0.1340632
154	0x3e28002c	0.16406316
155	0xbf78cebe	-0.97190464
156	0x3cd3da53	0.025860941
157	0x3f308409	0.6895147
158	0x3b8d2f62	0.004308627
159	0x3e6f35c1	0.23360349
160	0x3bdb95bd	0.0067012
161	0x3e69ce69	0.22832645
162	0xbf1085dc	-0.56454253
163	0xbd21b271	-0.039476816
164	0x3e8c9900	0.2746048
165	0x3ed5cf31	0.41759637
166	0x3daaab8d	0.08333502
167	0xbf41c5b7	-0.75692314
168	0x3b4dd56d	0.003140773
169	0xbdbedd05	-0.093195
170	0x3e6f9131	0.2339523
171	0xbe49056c	-0.19630975
172	0xbe6468c9	-0.22305597
173	0xbf2e3a5c	-0.680578
174	0x3e27a30b	0.1637079
175	0x3e32596f	0.17416929
176	0xbf2293e8	-0.6350694
177	0x3e026f60	0.12737799
178	0xbc8c2680	-0.017108202
179	0xbe73d375	-0.23811133
180	0x3d343cb2	0.044003196
181	0xbe6b9d75	-0.23009284
182	0x3d9a0371	0.07520188
183	0xbece6ae9	-0.4031594
184	0x3e99d120	0.30042362
185	0x3eb1d54d	0.34733048
186	0xbece8c3e	-0.4034137
187	0x3e7f6785	0.24941833
188	0x3e22a48d	0.15883084
189	0xbd197077	-0.03746077
190	0x3e8579eb	0.2606958
191	0x3d9f9514	0.07792106
192	0x39589be0	0.00020657433
193	0x3c9eec9b	0.019399932
194	0xbe9a05f3	-0.30082664
195	0xbdb3473a	-0.0875382
196	0x3e3ba038	0.18322837
197	0x3d70aac8	0.05875662
198	0x3d1254c1	0.03572536
199	0xbf091629	-0.5354944
200	0x3e8e1520	0.27750492
201	0xbe452d12	-0.19255474
202	0xbda892dd	-0.08231137
203	0xbdb82edc	-0.08993313
204	0xbe81c929	-0.25348786
205	0xbd9979e4	-0.07493952
206	0xbf73fbcc	-0.95306087
207	0xbceb8a2e	-0.028752413
208	0x3f071b40	0.52775955
209	0xbeebc475	-0.46048322
210	0xbeda835b	-0.4267834
211	0x3e92f307	0.2870104
212	0x3db3bb73	0.087759875
213	0x3e894b4a	0.26815253
214	0xbec8341e	-0.39102262
215	0x3f2e706b	0.68140286
216	0xbd893b0f	-0.06700718
217	0x3d80ed61	0.062952764
218	0x3f153faf	0.583003
219	0x3f096c43	0.5368082
220	0x3f0df8b5	0.5545762
221	0xbcb6d66b	-0.02231904
222	0x3e42f26e	0.19037792
223	0xbf3140a7	-0.69239277
224	0xbef2cdd8	-0.4742267
225	0x3e9ca983	0.30598077
226	0xbddf559a	-0.10904999
227	0xbd62427c	-0.055239186
228	0x3f3909f1	0.72280794
229	0x3e8aae02	0.27085882
230	0xbf975c95	-1.1825129
231	0xbf94b793	-1.1618522
232	0x3e19c940	0.15018177
233	0xbf1ff57f	-0.6248397
234	0x3b9738fa	0.0046149464
235	0xbeb39931	-0.35077813
236	0x3e0dee14	0.13860351
237	0x3e134668	0.14382327
238	0x3e2efdf2	0.1708906
239	0x3f1be46f	0.60895437
240	0xbe8d312a	-0.27576572
241	0x3e64724d	0.22309227
242	0xbe061265	-0.13092954
243	0x3e6cb88a	0.23117271
244	0xbe5ddbd7	-0.21665893
245	0x3e6e1ea0	0.2325387
246	0x3e303cad	0.17210646
247	0xbbe328fb	-0.0069323755
248	0x3d98e90e	0.07466327
249	0x3ebc246d	0.3674654
250	0xbd9e6384	-0.07733825
251	0x3ea0873c	0.31353176
252	0x3e514c45	0.20439251
253	0x3e7f3690	0.24923158
254	0xbe784ff3	-0.24249248
255	0xbe156671	-0.1458986

fc3.bias f4 [10]
0	0xbdae1d31	-0.085016616
1	0xbf0c239f	-0.54741853
2	0xbde68417	-0.11255663
3	0x3e2f80f2	0.17139032
4	0x3e96eb02	0.29476172
5	0x3da4054f	0.08008825
6	0xbcc305a8	-0.023806408
7	0xbd500f95	-0.05079611
8	0x3e5a5e83	0.21325116
9	0x3c507510	0.012723222
